{"format": "graph-model", "generatedBy": "2.12.0", "convertedBy": "TensorFlow.js Converter v4.8.0", "signature": {"outputs": {"Identity:0": {"name": "Identity:0"}}}, "modelTopology": {"node": [{"name": "ConstantFolding/PartitionedCall/model_8/tf.math.divide/truediv_recip", "op": "Const", "attr": {"value": {"tensor": {"dtype": "DT_FLOAT", "tensorShape": {"dim": [{"size": "1"}, {"size": "1"}, {"size": "1"}]}}}, "dtype": {"type": "DT_FLOAT"}}}, {"name": "1340", "op": "Const", "attr": {"value": {"tensor": {"dtype": "DT_FLOAT", "tensorShape": {"dim": [{"size": "1"}, {"size": "2"}, {"size": "8400"}]}}}, "dtype": {"type": "DT_FLOAT"}}}, {"name": "1332", "op": "Const", "attr": {"value": {"tensor": {"dtype": "DT_INT64", "tensorShape": {"dim": [{"size": "3"}]}}}, "dtype": {"type": "DT_INT64"}}}, {"name": "1334", "op": "Const", "attr": {"value": {"tensor": {"dtype": "DT_INT64", "tensorShape": {"dim": [{"size": "3"}]}}}, "dtype": {"type": "DT_INT64"}}}, {"name": "PartitionedCall/model_8/tf.strided_slice_19/ones_like", "op": "Const", "attr": {"value": {"tensor": {"dtype": "DT_INT64", "tensorShape": {"dim": [{"size": "3"}]}}}, "dtype": {"type": "DT_INT64"}}}, {"name": "1342", "op": "Const", "attr": {"value": {"tensor": {"dtype": "DT_FLOAT", "tensorShape": {"dim": [{"size": "1"}, {"size": "2"}, {"size": "8400"}]}}}, "dtype": {"type": "DT_FLOAT"}}}, {"name": "1326", "op": "Const", "attr": {"value": {"tensor": {"dtype": "DT_INT64", "tensorShape": {"dim": [{"size": "3"}]}}}, "dtype": {"type": "DT_INT64"}}}, {"name": "1328", "op": "Const", "attr": {"value": {"tensor": {"dtype": "DT_INT64", "tensorShape": {"dim": [{"size": "3"}]}}}, "dtype": {"type": "DT_INT64"}}}, {"name": "PartitionedCall/model_8/tf.strided_slice_16/StridedSlice/strides", "op": "Const", "attr": {"value": {"tensor": {"dtype": "DT_INT64", "tensorShape": {"dim": [{"size": "3"}]}}}, "dtype": {"type": "DT_INT64"}}}, {"name": "PartitionedCall/model_8/tf.reshape_3/Reshape/shape", "op": "Const", "attr": {"value": {"tensor": {"dtype": "DT_INT32", "tensorShape": {"dim": [{"size": "4"}]}}}, "dtype": {"type": "DT_INT32"}}}, {"name": "PartitionedCall/model_8/tf.compat.v1.transpose_10/transpose/perm", "op": "Const", "attr": {"value": {"tensor": {"dtype": "DT_INT32", "tensorShape": {"dim": [{"size": "4"}]}}}, "dtype": {"type": "DT_INT32"}}}, {"name": "PartitionedCall/model_8/tf.compat.v1.transpose_11/transpose/perm", "op": "Const", "attr": {"value": {"tensor": {"dtype": "DT_INT32", "tensorShape": {"dim": [{"size": "4"}]}}}, "dtype": {"type": "DT_INT32"}}}, {"name": "1330", "op": "Const", "attr": {"value": {"tensor": {"dtype": "DT_FLOAT", "tensorShape": {"dim": [{"size": "1"}, {"size": "1"}, {"size": "16"}, {"size": "1"}]}}}, "dtype": {"type": "DT_FLOAT"}}}, {"name": "PartitionedCall/model_8/tf.compat.v1.transpose_14/transpose/perm", "op": "Const", "attr": {"value": {"tensor": {"dtype": "DT_INT32", "tensorShape": {"dim": [{"size": "4"}]}}}, "dtype": {"type": "DT_INT32"}}}, {"name": "PartitionedCall/model_8/tf.reshape_4/Reshape/shape", "op": "Const", "attr": {"value": {"tensor": {"dtype": "DT_INT32", "tensorShape": {"dim": [{"size": "3"}]}}}, "dtype": {"type": "DT_INT32"}}}, {"name": "1336", "op": "Const", "attr": {"value": {"tensor": {"dtype": "DT_INT64", "tensorShape": {"dim": [{"size": "3"}]}}}, "dtype": {"type": "DT_INT64"}}}, {"name": "1338", "op": "Const", "attr": {"value": {"tensor": {"dtype": "DT_INT64", "tensorShape": {"dim": [{"size": "3"}]}}}, "dtype": {"type": "DT_INT64"}}}, {"name": "PartitionedCall/model_8/tf.strided_slice_18/ones_like", "op": "Const", "attr": {"value": {"tensor": {"dtype": "DT_INT64", "tensorShape": {"dim": [{"size": "3"}]}}}, "dtype": {"type": "DT_INT64"}}}, {"name": "PartitionedCall/model_8/tf.concat_17/concat/axis", "op": "Const", "attr": {"value": {"tensor": {"dtype": "DT_INT32", "tensorShape": {}}}, "dtype": {"type": "DT_INT32"}}}, {"name": "PartitionedCall/model_8/tf.math.multiply_185/Mul/y", "op": "Const", "attr": {"value": {"tensor": {"dtype": "DT_FLOAT", "tensorShape": {"dim": [{"size": "1"}, {"size": "1"}, {"size": "8400"}]}}}, "dtype": {"type": "DT_FLOAT"}}}, {"name": "1266", "op": "Const", "attr": {"value": {"tensor": {"dtype": "DT_FLOAT", "tensorShape": {"dim": [{"size": "3"}, {"size": "3"}, {"size": "64"}, {"size": "64"}]}}}, "dtype": {"type": "DT_FLOAT"}}}, {"name": "1276", "op": "Const", "attr": {"value": {"tensor": {"dtype": "DT_FLOAT", "tensorShape": {"dim": [{"size": "64"}]}}}, "dtype": {"type": "DT_FLOAT"}}}, {"name": "1290", "op": "Const", "attr": {"value": {"tensor": {"dtype": "DT_FLOAT", "tensorShape": {"dim": [{"size": "3"}, {"size": "3"}, {"size": "64"}, {"size": "64"}]}}}, "dtype": {"type": "DT_FLOAT"}}}, {"name": "1300", "op": "Const", "attr": {"value": {"tensor": {"dtype": "DT_FLOAT", "tensorShape": {"dim": [{"size": "64"}]}}}, "dtype": {"type": "DT_FLOAT"}}}, {"name": "1312", "op": "Const", "attr": {"value": {"tensor": {"dtype": "DT_FLOAT", "tensorShape": {"dim": [{"size": "1"}, {"size": "1"}, {"size": "64"}, {"size": "64"}]}}}, "dtype": {"type": "DT_FLOAT"}}}, {"name": "1322", "op": "Const", "attr": {"value": {"tensor": {"dtype": "DT_FLOAT", "tensorShape": {"dim": [{"size": "64"}]}}}, "dtype": {"type": "DT_FLOAT"}}}, {"name": "1252", "op": "Const", "attr": {"value": {"tensor": {"dtype": "DT_FLOAT", "tensorShape": {"dim": [{"size": "3"}, {"size": "3"}, {"size": "64"}, {"size": "80"}]}}}, "dtype": {"type": "DT_FLOAT"}}}, {"name": "1256", "op": "Const", "attr": {"value": {"tensor": {"dtype": "DT_FLOAT", "tensorShape": {"dim": [{"size": "80"}]}}}, "dtype": {"type": "DT_FLOAT"}}}, {"name": "1278", "op": "Const", "attr": {"value": {"tensor": {"dtype": "DT_FLOAT", "tensorShape": {"dim": [{"size": "3"}, {"size": "3"}, {"size": "80"}, {"size": "80"}]}}}, "dtype": {"type": "DT_FLOAT"}}}, {"name": "1280", "op": "Const", "attr": {"value": {"tensor": {"dtype": "DT_FLOAT", "tensorShape": {"dim": [{"size": "80"}]}}}, "dtype": {"type": "DT_FLOAT"}}}, {"name": "1310", "op": "Const", "attr": {"value": {"tensor": {"dtype": "DT_FLOAT", "tensorShape": {"dim": [{"size": "1"}, {"size": "1"}, {"size": "80"}, {"size": "80"}]}}}, "dtype": {"type": "DT_FLOAT"}}}, {"name": "1324", "op": "Const", "attr": {"value": {"tensor": {"dtype": "DT_FLOAT", "tensorShape": {"dim": [{"size": "80"}]}}}, "dtype": {"type": "DT_FLOAT"}}}, {"name": "PartitionedCall/model_8/tf.concat_10/concat/axis", "op": "Const", "attr": {"value": {"tensor": {"dtype": "DT_INT32", "tensorShape": {}}}, "dtype": {"type": "DT_INT32"}}}, {"name": "PartitionedCall/model_8/tf.compat.v1.transpose_6/transpose/perm", "op": "Const", "attr": {"value": {"tensor": {"dtype": "DT_INT32", "tensorShape": {"dim": [{"size": "4"}]}}}, "dtype": {"type": "DT_INT32"}}}, {"name": "PartitionedCall/model_8/tf.reshape/Reshape/shape", "op": "Const", "attr": {"value": {"tensor": {"dtype": "DT_INT32", "tensorShape": {"dim": [{"size": "3"}]}}}, "dtype": {"type": "DT_INT32"}}}, {"name": "1264", "op": "Const", "attr": {"value": {"tensor": {"dtype": "DT_FLOAT", "tensorShape": {"dim": [{"size": "3"}, {"size": "3"}, {"size": "128"}, {"size": "64"}]}}}, "dtype": {"type": "DT_FLOAT"}}}, {"name": "1274", "op": "Const", "attr": {"value": {"tensor": {"dtype": "DT_FLOAT", "tensorShape": {"dim": [{"size": "64"}]}}}, "dtype": {"type": "DT_FLOAT"}}}, {"name": "1288", "op": "Const", "attr": {"value": {"tensor": {"dtype": "DT_FLOAT", "tensorShape": {"dim": [{"size": "3"}, {"size": "3"}, {"size": "64"}, {"size": "64"}]}}}, "dtype": {"type": "DT_FLOAT"}}}, {"name": "1298", "op": "Const", "attr": {"value": {"tensor": {"dtype": "DT_FLOAT", "tensorShape": {"dim": [{"size": "64"}]}}}, "dtype": {"type": "DT_FLOAT"}}}, {"name": "1308", "op": "Const", "attr": {"value": {"tensor": {"dtype": "DT_FLOAT", "tensorShape": {"dim": [{"size": "1"}, {"size": "1"}, {"size": "64"}, {"size": "64"}]}}}, "dtype": {"type": "DT_FLOAT"}}}, {"name": "1318", "op": "Const", "attr": {"value": {"tensor": {"dtype": "DT_FLOAT", "tensorShape": {"dim": [{"size": "64"}]}}}, "dtype": {"type": "DT_FLOAT"}}}, {"name": "1262", "op": "Const", "attr": {"value": {"tensor": {"dtype": "DT_FLOAT", "tensorShape": {"dim": [{"size": "3"}, {"size": "3"}, {"size": "128"}, {"size": "80"}]}}}, "dtype": {"type": "DT_FLOAT"}}}, {"name": "1272", "op": "Const", "attr": {"value": {"tensor": {"dtype": "DT_FLOAT", "tensorShape": {"dim": [{"size": "80"}]}}}, "dtype": {"type": "DT_FLOAT"}}}, {"name": "1286", "op": "Const", "attr": {"value": {"tensor": {"dtype": "DT_FLOAT", "tensorShape": {"dim": [{"size": "3"}, {"size": "3"}, {"size": "80"}, {"size": "80"}]}}}, "dtype": {"type": "DT_FLOAT"}}}, {"name": "1296", "op": "Const", "attr": {"value": {"tensor": {"dtype": "DT_FLOAT", "tensorShape": {"dim": [{"size": "80"}]}}}, "dtype": {"type": "DT_FLOAT"}}}, {"name": "1306", "op": "Const", "attr": {"value": {"tensor": {"dtype": "DT_FLOAT", "tensorShape": {"dim": [{"size": "1"}, {"size": "1"}, {"size": "80"}, {"size": "80"}]}}}, "dtype": {"type": "DT_FLOAT"}}}, {"name": "1320", "op": "Const", "attr": {"value": {"tensor": {"dtype": "DT_FLOAT", "tensorShape": {"dim": [{"size": "80"}]}}}, "dtype": {"type": "DT_FLOAT"}}}, {"name": "PartitionedCall/model_8/tf.concat_13/concat/axis", "op": "Const", "attr": {"value": {"tensor": {"dtype": "DT_INT32", "tensorShape": {}}}, "dtype": {"type": "DT_INT32"}}}, {"name": "PartitionedCall/model_8/tf.compat.v1.transpose_7/transpose/perm", "op": "Const", "attr": {"value": {"tensor": {"dtype": "DT_INT32", "tensorShape": {"dim": [{"size": "4"}]}}}, "dtype": {"type": "DT_INT32"}}}, {"name": "PartitionedCall/model_8/tf.reshape_1/Reshape/shape", "op": "Const", "attr": {"value": {"tensor": {"dtype": "DT_INT32", "tensorShape": {"dim": [{"size": "3"}]}}}, "dtype": {"type": "DT_INT32"}}}, {"name": "1260", "op": "Const", "attr": {"value": {"tensor": {"dtype": "DT_FLOAT", "tensorShape": {"dim": [{"size": "3"}, {"size": "3"}, {"size": "256"}, {"size": "64"}]}}}, "dtype": {"type": "DT_FLOAT"}}}, {"name": "1270", "op": "Const", "attr": {"value": {"tensor": {"dtype": "DT_FLOAT", "tensorShape": {"dim": [{"size": "64"}]}}}, "dtype": {"type": "DT_FLOAT"}}}, {"name": "1284", "op": "Const", "attr": {"value": {"tensor": {"dtype": "DT_FLOAT", "tensorShape": {"dim": [{"size": "3"}, {"size": "3"}, {"size": "64"}, {"size": "64"}]}}}, "dtype": {"type": "DT_FLOAT"}}}, {"name": "1294", "op": "Const", "attr": {"value": {"tensor": {"dtype": "DT_FLOAT", "tensorShape": {"dim": [{"size": "64"}]}}}, "dtype": {"type": "DT_FLOAT"}}}, {"name": "1304", "op": "Const", "attr": {"value": {"tensor": {"dtype": "DT_FLOAT", "tensorShape": {"dim": [{"size": "1"}, {"size": "1"}, {"size": "64"}, {"size": "64"}]}}}, "dtype": {"type": "DT_FLOAT"}}}, {"name": "1314", "op": "Const", "attr": {"value": {"tensor": {"dtype": "DT_FLOAT", "tensorShape": {"dim": [{"size": "64"}]}}}, "dtype": {"type": "DT_FLOAT"}}}, {"name": "1246", "op": "Const", "attr": {"value": {"tensor": {"dtype": "DT_INT64", "tensorShape": {"dim": [{"size": "4"}]}}}, "dtype": {"type": "DT_INT64"}}}, {"name": "1248", "op": "Const", "attr": {"value": {"tensor": {"dtype": "DT_INT64", "tensorShape": {"dim": [{"size": "4"}]}}}, "dtype": {"type": "DT_INT64"}}}, {"name": "PartitionedCall/model_8/tf.strided_slice_14/ones_like", "op": "Const", "attr": {"value": {"tensor": {"dtype": "DT_INT64", "tensorShape": {"dim": [{"size": "4"}]}}}, "dtype": {"type": "DT_INT64"}}}, {"name": "1216", "op": "Const", "attr": {"value": {"tensor": {"dtype": "DT_INT64", "tensorShape": {"dim": [{"size": "4"}]}}}, "dtype": {"type": "DT_INT64"}}}, {"name": "1218", "op": "Const", "attr": {"value": {"tensor": {"dtype": "DT_INT64", "tensorShape": {"dim": [{"size": "4"}]}}}, "dtype": {"type": "DT_INT64"}}}, {"name": "PartitionedCall/model_8/tf.strided_slice_12/ones_like", "op": "Const", "attr": {"value": {"tensor": {"dtype": "DT_INT64", "tensorShape": {"dim": [{"size": "4"}]}}}, "dtype": {"type": "DT_INT64"}}}, {"name": "1186", "op": "Const", "attr": {"value": {"tensor": {"dtype": "DT_INT64", "tensorShape": {"dim": [{"size": "4"}]}}}, "dtype": {"type": "DT_INT64"}}}, {"name": "1188", "op": "Const", "attr": {"value": {"tensor": {"dtype": "DT_INT64", "tensorShape": {"dim": [{"size": "4"}]}}}, "dtype": {"type": "DT_INT64"}}}, {"name": "PartitionedCall/model_8/tf.strided_slice_10/ones_like", "op": "Const", "attr": {"value": {"tensor": {"dtype": "DT_INT64", "tensorShape": {"dim": [{"size": "4"}]}}}, "dtype": {"type": "DT_INT64"}}}, {"name": "PartitionedCall/model_8/lambda_1//model.13/Resize/size", "op": "Const", "attr": {"value": {"tensor": {"dtype": "DT_INT32", "tensorShape": {"dim": [{"size": "2"}]}}}, "dtype": {"type": "DT_INT32"}}}, {"name": "PartitionedCall/model_8/tf.concat_7/concat/axis", "op": "Const", "attr": {"value": {"tensor": {"dtype": "DT_INT32", "tensorShape": {}}}, "dtype": {"type": "DT_INT32"}}}, {"name": "1170", "op": "Const", "attr": {"value": {"tensor": {"dtype": "DT_FLOAT", "tensorShape": {"dim": [{"size": "1"}, {"size": "1"}, {"size": "192"}, {"size": "64"}]}}}, "dtype": {"type": "DT_FLOAT"}}}, {"name": "1172", "op": "Const", "attr": {"value": {"tensor": {"dtype": "DT_FLOAT", "tensorShape": {"dim": [{"size": "64"}]}}}, "dtype": {"type": "DT_FLOAT"}}}, {"name": "1174", "op": "Const", "attr": {"value": {"tensor": {"dtype": "DT_INT64", "tensorShape": {"dim": [{"size": "4"}]}}}, "dtype": {"type": "DT_INT64"}}}, {"name": "1176", "op": "Const", "attr": {"value": {"tensor": {"dtype": "DT_INT64", "tensorShape": {"dim": [{"size": "4"}]}}}, "dtype": {"type": "DT_INT64"}}}, {"name": "PartitionedCall/model_8/tf.strided_slice_11/ones_like", "op": "Const", "attr": {"value": {"tensor": {"dtype": "DT_INT64", "tensorShape": {"dim": [{"size": "4"}]}}}, "dtype": {"type": "DT_INT64"}}}, {"name": "1178", "op": "Const", "attr": {"value": {"tensor": {"dtype": "DT_FLOAT", "tensorShape": {"dim": [{"size": "3"}, {"size": "3"}, {"size": "32"}, {"size": "32"}]}}}, "dtype": {"type": "DT_FLOAT"}}}, {"name": "1180", "op": "Const", "attr": {"value": {"tensor": {"dtype": "DT_FLOAT", "tensorShape": {"dim": [{"size": "32"}]}}}, "dtype": {"type": "DT_FLOAT"}}}, {"name": "1182", "op": "Const", "attr": {"value": {"tensor": {"dtype": "DT_FLOAT", "tensorShape": {"dim": [{"size": "3"}, {"size": "3"}, {"size": "32"}, {"size": "32"}]}}}, "dtype": {"type": "DT_FLOAT"}}}, {"name": "1184", "op": "Const", "attr": {"value": {"tensor": {"dtype": "DT_FLOAT", "tensorShape": {"dim": [{"size": "32"}]}}}, "dtype": {"type": "DT_FLOAT"}}}, {"name": "PartitionedCall/model_8/tf.concat_8/concat/axis", "op": "Const", "attr": {"value": {"tensor": {"dtype": "DT_INT32", "tensorShape": {}}}, "dtype": {"type": "DT_INT32"}}}, {"name": "1190", "op": "Const", "attr": {"value": {"tensor": {"dtype": "DT_FLOAT", "tensorShape": {"dim": [{"size": "1"}, {"size": "1"}, {"size": "96"}, {"size": "64"}]}}}, "dtype": {"type": "DT_FLOAT"}}}, {"name": "1192", "op": "Const", "attr": {"value": {"tensor": {"dtype": "DT_FLOAT", "tensorShape": {"dim": [{"size": "64"}]}}}, "dtype": {"type": "DT_FLOAT"}}}, {"name": "1194", "op": "Const", "attr": {"value": {"tensor": {"dtype": "DT_INT32", "tensorShape": {"dim": [{"size": "4"}, {"size": "2"}]}}}, "dtype": {"type": "DT_INT32"}}}, {"name": "1196", "op": "Const", "attr": {"value": {"tensor": {"dtype": "DT_FLOAT", "tensorShape": {"dim": [{"size": "3"}, {"size": "3"}, {"size": "64"}, {"size": "64"}]}}}, "dtype": {"type": "DT_FLOAT"}}}, {"name": "1198", "op": "Const", "attr": {"value": {"tensor": {"dtype": "DT_FLOAT", "tensorShape": {"dim": [{"size": "64"}]}}}, "dtype": {"type": "DT_FLOAT"}}}, {"name": "1162", "op": "Const", "attr": {"value": {"tensor": {"dtype": "DT_INT64", "tensorShape": {"dim": [{"size": "4"}]}}}, "dtype": {"type": "DT_INT64"}}}, {"name": "1164", "op": "Const", "attr": {"value": {"tensor": {"dtype": "DT_INT64", "tensorShape": {"dim": [{"size": "4"}]}}}, "dtype": {"type": "DT_INT64"}}}, {"name": "PartitionedCall/model_8/tf.strided_slice_8/ones_like", "op": "Const", "attr": {"value": {"tensor": {"dtype": "DT_INT64", "tensorShape": {"dim": [{"size": "4"}]}}}, "dtype": {"type": "DT_INT64"}}}, {"name": "PartitionedCall/model_8/lambda//model.10/Resize/size", "op": "Const", "attr": {"value": {"tensor": {"dtype": "DT_INT32", "tensorShape": {"dim": [{"size": "2"}]}}}, "dtype": {"type": "DT_INT32"}}}, {"name": "PartitionedCall/model_8/tf.concat_5/concat/axis", "op": "Const", "attr": {"value": {"tensor": {"dtype": "DT_INT32", "tensorShape": {}}}, "dtype": {"type": "DT_INT32"}}}, {"name": "1146", "op": "Const", "attr": {"value": {"tensor": {"dtype": "DT_FLOAT", "tensorShape": {"dim": [{"size": "1"}, {"size": "1"}, {"size": "384"}, {"size": "128"}]}}}, "dtype": {"type": "DT_FLOAT"}}}, {"name": "1148", "op": "Const", "attr": {"value": {"tensor": {"dtype": "DT_FLOAT", "tensorShape": {"dim": [{"size": "128"}]}}}, "dtype": {"type": "DT_FLOAT"}}}, {"name": "1150", "op": "Const", "attr": {"value": {"tensor": {"dtype": "DT_INT64", "tensorShape": {"dim": [{"size": "4"}]}}}, "dtype": {"type": "DT_INT64"}}}, {"name": "1152", "op": "Const", "attr": {"value": {"tensor": {"dtype": "DT_INT64", "tensorShape": {"dim": [{"size": "4"}]}}}, "dtype": {"type": "DT_INT64"}}}, {"name": "PartitionedCall/model_8/tf.strided_slice_9/ones_like", "op": "Const", "attr": {"value": {"tensor": {"dtype": "DT_INT64", "tensorShape": {"dim": [{"size": "4"}]}}}, "dtype": {"type": "DT_INT64"}}}, {"name": "1154", "op": "Const", "attr": {"value": {"tensor": {"dtype": "DT_FLOAT", "tensorShape": {"dim": [{"size": "3"}, {"size": "3"}, {"size": "64"}, {"size": "64"}]}}}, "dtype": {"type": "DT_FLOAT"}}}, {"name": "1156", "op": "Const", "attr": {"value": {"tensor": {"dtype": "DT_FLOAT", "tensorShape": {"dim": [{"size": "64"}]}}}, "dtype": {"type": "DT_FLOAT"}}}, {"name": "1158", "op": "Const", "attr": {"value": {"tensor": {"dtype": "DT_FLOAT", "tensorShape": {"dim": [{"size": "3"}, {"size": "3"}, {"size": "64"}, {"size": "64"}]}}}, "dtype": {"type": "DT_FLOAT"}}}, {"name": "1160", "op": "Const", "attr": {"value": {"tensor": {"dtype": "DT_FLOAT", "tensorShape": {"dim": [{"size": "64"}]}}}, "dtype": {"type": "DT_FLOAT"}}}, {"name": "PartitionedCall/model_8/tf.concat_6/concat/axis", "op": "Const", "attr": {"value": {"tensor": {"dtype": "DT_INT32", "tensorShape": {}}}, "dtype": {"type": "DT_INT32"}}}, {"name": "1166", "op": "Const", "attr": {"value": {"tensor": {"dtype": "DT_FLOAT", "tensorShape": {"dim": [{"size": "1"}, {"size": "1"}, {"size": "192"}, {"size": "128"}]}}}, "dtype": {"type": "DT_FLOAT"}}}, {"name": "1168", "op": "Const", "attr": {"value": {"tensor": {"dtype": "DT_FLOAT", "tensorShape": {"dim": [{"size": "128"}]}}}, "dtype": {"type": "DT_FLOAT"}}}, {"name": "PartitionedCall/model_8/tf.concat_9/concat/axis", "op": "Const", "attr": {"value": {"tensor": {"dtype": "DT_INT32", "tensorShape": {}}}, "dtype": {"type": "DT_INT32"}}}, {"name": "1200", "op": "Const", "attr": {"value": {"tensor": {"dtype": "DT_FLOAT", "tensorShape": {"dim": [{"size": "1"}, {"size": "1"}, {"size": "192"}, {"size": "128"}]}}}, "dtype": {"type": "DT_FLOAT"}}}, {"name": "1202", "op": "Const", "attr": {"value": {"tensor": {"dtype": "DT_FLOAT", "tensorShape": {"dim": [{"size": "128"}]}}}, "dtype": {"type": "DT_FLOAT"}}}, {"name": "1204", "op": "Const", "attr": {"value": {"tensor": {"dtype": "DT_INT64", "tensorShape": {"dim": [{"size": "4"}]}}}, "dtype": {"type": "DT_INT64"}}}, {"name": "1206", "op": "Const", "attr": {"value": {"tensor": {"dtype": "DT_INT64", "tensorShape": {"dim": [{"size": "4"}]}}}, "dtype": {"type": "DT_INT64"}}}, {"name": "PartitionedCall/model_8/tf.strided_slice_13/ones_like", "op": "Const", "attr": {"value": {"tensor": {"dtype": "DT_INT64", "tensorShape": {"dim": [{"size": "4"}]}}}, "dtype": {"type": "DT_INT64"}}}, {"name": "1208", "op": "Const", "attr": {"value": {"tensor": {"dtype": "DT_FLOAT", "tensorShape": {"dim": [{"size": "3"}, {"size": "3"}, {"size": "64"}, {"size": "64"}]}}}, "dtype": {"type": "DT_FLOAT"}}}, {"name": "1210", "op": "Const", "attr": {"value": {"tensor": {"dtype": "DT_FLOAT", "tensorShape": {"dim": [{"size": "64"}]}}}, "dtype": {"type": "DT_FLOAT"}}}, {"name": "1212", "op": "Const", "attr": {"value": {"tensor": {"dtype": "DT_FLOAT", "tensorShape": {"dim": [{"size": "3"}, {"size": "3"}, {"size": "64"}, {"size": "64"}]}}}, "dtype": {"type": "DT_FLOAT"}}}, {"name": "1214", "op": "Const", "attr": {"value": {"tensor": {"dtype": "DT_FLOAT", "tensorShape": {"dim": [{"size": "64"}]}}}, "dtype": {"type": "DT_FLOAT"}}}, {"name": "PartitionedCall/model_8/tf.concat_11/concat/axis", "op": "Const", "attr": {"value": {"tensor": {"dtype": "DT_INT32", "tensorShape": {}}}, "dtype": {"type": "DT_INT32"}}}, {"name": "1220", "op": "Const", "attr": {"value": {"tensor": {"dtype": "DT_FLOAT", "tensorShape": {"dim": [{"size": "1"}, {"size": "1"}, {"size": "192"}, {"size": "128"}]}}}, "dtype": {"type": "DT_FLOAT"}}}, {"name": "1222", "op": "Const", "attr": {"value": {"tensor": {"dtype": "DT_FLOAT", "tensorShape": {"dim": [{"size": "128"}]}}}, "dtype": {"type": "DT_FLOAT"}}}, {"name": "1224", "op": "Const", "attr": {"value": {"tensor": {"dtype": "DT_INT32", "tensorShape": {"dim": [{"size": "4"}, {"size": "2"}]}}}, "dtype": {"type": "DT_INT32"}}}, {"name": "1226", "op": "Const", "attr": {"value": {"tensor": {"dtype": "DT_FLOAT", "tensorShape": {"dim": [{"size": "3"}, {"size": "3"}, {"size": "128"}, {"size": "128"}]}}}, "dtype": {"type": "DT_FLOAT"}}}, {"name": "1228", "op": "Const", "attr": {"value": {"tensor": {"dtype": "DT_FLOAT", "tensorShape": {"dim": [{"size": "128"}]}}}, "dtype": {"type": "DT_FLOAT"}}}, {"name": "1130", "op": "Const", "attr": {"value": {"tensor": {"dtype": "DT_INT64", "tensorShape": {"dim": [{"size": "4"}]}}}, "dtype": {"type": "DT_INT64"}}}, {"name": "1132", "op": "Const", "attr": {"value": {"tensor": {"dtype": "DT_INT64", "tensorShape": {"dim": [{"size": "4"}]}}}, "dtype": {"type": "DT_INT64"}}}, {"name": "PartitionedCall/model_8/tf.strided_slice_6/ones_like", "op": "Const", "attr": {"value": {"tensor": {"dtype": "DT_INT64", "tensorShape": {"dim": [{"size": "4"}]}}}, "dtype": {"type": "DT_INT64"}}}, {"name": "1100", "op": "Const", "attr": {"value": {"tensor": {"dtype": "DT_INT64", "tensorShape": {"dim": [{"size": "4"}]}}}, "dtype": {"type": "DT_INT64"}}}, {"name": "1102", "op": "Const", "attr": {"value": {"tensor": {"dtype": "DT_INT64", "tensorShape": {"dim": [{"size": "4"}]}}}, "dtype": {"type": "DT_INT64"}}}, {"name": "PartitionedCall/model_8/tf.strided_slice_4/ones_like", "op": "Const", "attr": {"value": {"tensor": {"dtype": "DT_INT64", "tensorShape": {"dim": [{"size": "4"}]}}}, "dtype": {"type": "DT_INT64"}}}, {"name": "1062", "op": "Const", "attr": {"value": {"tensor": {"dtype": "DT_INT64", "tensorShape": {"dim": [{"size": "4"}]}}}, "dtype": {"type": "DT_INT64"}}}, {"name": "1064", "op": "Const", "attr": {"value": {"tensor": {"dtype": "DT_INT64", "tensorShape": {"dim": [{"size": "4"}]}}}, "dtype": {"type": "DT_INT64"}}}, {"name": "PartitionedCall/model_8/tf.strided_slice_2/ones_like", "op": "Const", "attr": {"value": {"tensor": {"dtype": "DT_INT64", "tensorShape": {"dim": [{"size": "4"}]}}}, "dtype": {"type": "DT_INT64"}}}, {"name": "1024", "op": "Const", "attr": {"value": {"tensor": {"dtype": "DT_INT64", "tensorShape": {"dim": [{"size": "4"}]}}}, "dtype": {"type": "DT_INT64"}}}, {"name": "1026", "op": "Const", "attr": {"value": {"tensor": {"dtype": "DT_INT64", "tensorShape": {"dim": [{"size": "4"}]}}}, "dtype": {"type": "DT_INT64"}}}, {"name": "PartitionedCall/model_8/tf.strided_slice/ones_like", "op": "Const", "attr": {"value": {"tensor": {"dtype": "DT_INT64", "tensorShape": {"dim": [{"size": "4"}]}}}, "dtype": {"type": "DT_INT64"}}}, {"name": "996", "op": "Const", "attr": {"value": {"tensor": {"dtype": "DT_INT32", "tensorShape": {"dim": [{"size": "4"}, {"size": "2"}]}}}, "dtype": {"type": "DT_INT32"}}}, {"name": "998", "op": "Const", "attr": {"value": {"tensor": {"dtype": "DT_FLOAT", "tensorShape": {"dim": [{"size": "3"}, {"size": "3"}, {"size": "3"}, {"size": "16"}]}}}, "dtype": {"type": "DT_FLOAT"}}}, {"name": "1000", "op": "Const", "attr": {"value": {"tensor": {"dtype": "DT_FLOAT", "tensorShape": {"dim": [{"size": "16"}]}}}, "dtype": {"type": "DT_FLOAT"}}}, {"name": "1002", "op": "Const", "attr": {"value": {"tensor": {"dtype": "DT_INT32", "tensorShape": {"dim": [{"size": "4"}, {"size": "2"}]}}}, "dtype": {"type": "DT_INT32"}}}, {"name": "1004", "op": "Const", "attr": {"value": {"tensor": {"dtype": "DT_FLOAT", "tensorShape": {"dim": [{"size": "3"}, {"size": "3"}, {"size": "16"}, {"size": "32"}]}}}, "dtype": {"type": "DT_FLOAT"}}}, {"name": "1006", "op": "Const", "attr": {"value": {"tensor": {"dtype": "DT_FLOAT", "tensorShape": {"dim": [{"size": "32"}]}}}, "dtype": {"type": "DT_FLOAT"}}}, {"name": "1008", "op": "Const", "attr": {"value": {"tensor": {"dtype": "DT_FLOAT", "tensorShape": {"dim": [{"size": "1"}, {"size": "1"}, {"size": "32"}, {"size": "32"}]}}}, "dtype": {"type": "DT_FLOAT"}}}, {"name": "1010", "op": "Const", "attr": {"value": {"tensor": {"dtype": "DT_FLOAT", "tensorShape": {"dim": [{"size": "32"}]}}}, "dtype": {"type": "DT_FLOAT"}}}, {"name": "1012", "op": "Const", "attr": {"value": {"tensor": {"dtype": "DT_INT64", "tensorShape": {"dim": [{"size": "4"}]}}}, "dtype": {"type": "DT_INT64"}}}, {"name": "1014", "op": "Const", "attr": {"value": {"tensor": {"dtype": "DT_INT64", "tensorShape": {"dim": [{"size": "4"}]}}}, "dtype": {"type": "DT_INT64"}}}, {"name": "PartitionedCall/model_8/tf.strided_slice_1/ones_like", "op": "Const", "attr": {"value": {"tensor": {"dtype": "DT_INT64", "tensorShape": {"dim": [{"size": "4"}]}}}, "dtype": {"type": "DT_INT64"}}}, {"name": "1016", "op": "Const", "attr": {"value": {"tensor": {"dtype": "DT_FLOAT", "tensorShape": {"dim": [{"size": "3"}, {"size": "3"}, {"size": "16"}, {"size": "16"}]}}}, "dtype": {"type": "DT_FLOAT"}}}, {"name": "1018", "op": "Const", "attr": {"value": {"tensor": {"dtype": "DT_FLOAT", "tensorShape": {"dim": [{"size": "16"}]}}}, "dtype": {"type": "DT_FLOAT"}}}, {"name": "1020", "op": "Const", "attr": {"value": {"tensor": {"dtype": "DT_FLOAT", "tensorShape": {"dim": [{"size": "3"}, {"size": "3"}, {"size": "16"}, {"size": "16"}]}}}, "dtype": {"type": "DT_FLOAT"}}}, {"name": "1022", "op": "Const", "attr": {"value": {"tensor": {"dtype": "DT_FLOAT", "tensorShape": {"dim": [{"size": "16"}]}}}, "dtype": {"type": "DT_FLOAT"}}}, {"name": "PartitionedCall/model_8/tf.concat/concat/axis", "op": "Const", "attr": {"value": {"tensor": {"dtype": "DT_INT32", "tensorShape": {}}}, "dtype": {"type": "DT_INT32"}}}, {"name": "1028", "op": "Const", "attr": {"value": {"tensor": {"dtype": "DT_FLOAT", "tensorShape": {"dim": [{"size": "1"}, {"size": "1"}, {"size": "48"}, {"size": "32"}]}}}, "dtype": {"type": "DT_FLOAT"}}}, {"name": "1030", "op": "Const", "attr": {"value": {"tensor": {"dtype": "DT_FLOAT", "tensorShape": {"dim": [{"size": "32"}]}}}, "dtype": {"type": "DT_FLOAT"}}}, {"name": "1032", "op": "Const", "attr": {"value": {"tensor": {"dtype": "DT_INT32", "tensorShape": {"dim": [{"size": "4"}, {"size": "2"}]}}}, "dtype": {"type": "DT_INT32"}}}, {"name": "1034", "op": "Const", "attr": {"value": {"tensor": {"dtype": "DT_FLOAT", "tensorShape": {"dim": [{"size": "3"}, {"size": "3"}, {"size": "32"}, {"size": "64"}]}}}, "dtype": {"type": "DT_FLOAT"}}}, {"name": "1036", "op": "Const", "attr": {"value": {"tensor": {"dtype": "DT_FLOAT", "tensorShape": {"dim": [{"size": "64"}]}}}, "dtype": {"type": "DT_FLOAT"}}}, {"name": "1038", "op": "Const", "attr": {"value": {"tensor": {"dtype": "DT_FLOAT", "tensorShape": {"dim": [{"size": "1"}, {"size": "1"}, {"size": "64"}, {"size": "64"}]}}}, "dtype": {"type": "DT_FLOAT"}}}, {"name": "1040", "op": "Const", "attr": {"value": {"tensor": {"dtype": "DT_FLOAT", "tensorShape": {"dim": [{"size": "64"}]}}}, "dtype": {"type": "DT_FLOAT"}}}, {"name": "1042", "op": "Const", "attr": {"value": {"tensor": {"dtype": "DT_INT64", "tensorShape": {"dim": [{"size": "4"}]}}}, "dtype": {"type": "DT_INT64"}}}, {"name": "1044", "op": "Const", "attr": {"value": {"tensor": {"dtype": "DT_INT64", "tensorShape": {"dim": [{"size": "4"}]}}}, "dtype": {"type": "DT_INT64"}}}, {"name": "PartitionedCall/model_8/tf.strided_slice_3/ones_like", "op": "Const", "attr": {"value": {"tensor": {"dtype": "DT_INT64", "tensorShape": {"dim": [{"size": "4"}]}}}, "dtype": {"type": "DT_INT64"}}}, {"name": "1046", "op": "Const", "attr": {"value": {"tensor": {"dtype": "DT_FLOAT", "tensorShape": {"dim": [{"size": "3"}, {"size": "3"}, {"size": "32"}, {"size": "32"}]}}}, "dtype": {"type": "DT_FLOAT"}}}, {"name": "1048", "op": "Const", "attr": {"value": {"tensor": {"dtype": "DT_FLOAT", "tensorShape": {"dim": [{"size": "32"}]}}}, "dtype": {"type": "DT_FLOAT"}}}, {"name": "1050", "op": "Const", "attr": {"value": {"tensor": {"dtype": "DT_FLOAT", "tensorShape": {"dim": [{"size": "3"}, {"size": "3"}, {"size": "32"}, {"size": "32"}]}}}, "dtype": {"type": "DT_FLOAT"}}}, {"name": "1052", "op": "Const", "attr": {"value": {"tensor": {"dtype": "DT_FLOAT", "tensorShape": {"dim": [{"size": "32"}]}}}, "dtype": {"type": "DT_FLOAT"}}}, {"name": "1054", "op": "Const", "attr": {"value": {"tensor": {"dtype": "DT_FLOAT", "tensorShape": {"dim": [{"size": "3"}, {"size": "3"}, {"size": "32"}, {"size": "32"}]}}}, "dtype": {"type": "DT_FLOAT"}}}, {"name": "1056", "op": "Const", "attr": {"value": {"tensor": {"dtype": "DT_FLOAT", "tensorShape": {"dim": [{"size": "32"}]}}}, "dtype": {"type": "DT_FLOAT"}}}, {"name": "1058", "op": "Const", "attr": {"value": {"tensor": {"dtype": "DT_FLOAT", "tensorShape": {"dim": [{"size": "3"}, {"size": "3"}, {"size": "32"}, {"size": "32"}]}}}, "dtype": {"type": "DT_FLOAT"}}}, {"name": "1060", "op": "Const", "attr": {"value": {"tensor": {"dtype": "DT_FLOAT", "tensorShape": {"dim": [{"size": "32"}]}}}, "dtype": {"type": "DT_FLOAT"}}}, {"name": "PartitionedCall/model_8/tf.concat_1/concat/axis", "op": "Const", "attr": {"value": {"tensor": {"dtype": "DT_INT32", "tensorShape": {}}}, "dtype": {"type": "DT_INT32"}}}, {"name": "1066", "op": "Const", "attr": {"value": {"tensor": {"dtype": "DT_FLOAT", "tensorShape": {"dim": [{"size": "1"}, {"size": "1"}, {"size": "128"}, {"size": "64"}]}}}, "dtype": {"type": "DT_FLOAT"}}}, {"name": "1068", "op": "Const", "attr": {"value": {"tensor": {"dtype": "DT_FLOAT", "tensorShape": {"dim": [{"size": "64"}]}}}, "dtype": {"type": "DT_FLOAT"}}}, {"name": "1070", "op": "Const", "attr": {"value": {"tensor": {"dtype": "DT_INT32", "tensorShape": {"dim": [{"size": "4"}, {"size": "2"}]}}}, "dtype": {"type": "DT_INT32"}}}, {"name": "1072", "op": "Const", "attr": {"value": {"tensor": {"dtype": "DT_FLOAT", "tensorShape": {"dim": [{"size": "3"}, {"size": "3"}, {"size": "64"}, {"size": "128"}]}}}, "dtype": {"type": "DT_FLOAT"}}}, {"name": "1074", "op": "Const", "attr": {"value": {"tensor": {"dtype": "DT_FLOAT", "tensorShape": {"dim": [{"size": "128"}]}}}, "dtype": {"type": "DT_FLOAT"}}}, {"name": "1076", "op": "Const", "attr": {"value": {"tensor": {"dtype": "DT_FLOAT", "tensorShape": {"dim": [{"size": "1"}, {"size": "1"}, {"size": "128"}, {"size": "128"}]}}}, "dtype": {"type": "DT_FLOAT"}}}, {"name": "1078", "op": "Const", "attr": {"value": {"tensor": {"dtype": "DT_FLOAT", "tensorShape": {"dim": [{"size": "128"}]}}}, "dtype": {"type": "DT_FLOAT"}}}, {"name": "1080", "op": "Const", "attr": {"value": {"tensor": {"dtype": "DT_INT64", "tensorShape": {"dim": [{"size": "4"}]}}}, "dtype": {"type": "DT_INT64"}}}, {"name": "1082", "op": "Const", "attr": {"value": {"tensor": {"dtype": "DT_INT64", "tensorShape": {"dim": [{"size": "4"}]}}}, "dtype": {"type": "DT_INT64"}}}, {"name": "PartitionedCall/model_8/tf.strided_slice_5/ones_like", "op": "Const", "attr": {"value": {"tensor": {"dtype": "DT_INT64", "tensorShape": {"dim": [{"size": "4"}]}}}, "dtype": {"type": "DT_INT64"}}}, {"name": "1084", "op": "Const", "attr": {"value": {"tensor": {"dtype": "DT_FLOAT", "tensorShape": {"dim": [{"size": "3"}, {"size": "3"}, {"size": "64"}, {"size": "64"}]}}}, "dtype": {"type": "DT_FLOAT"}}}, {"name": "1086", "op": "Const", "attr": {"value": {"tensor": {"dtype": "DT_FLOAT", "tensorShape": {"dim": [{"size": "64"}]}}}, "dtype": {"type": "DT_FLOAT"}}}, {"name": "1088", "op": "Const", "attr": {"value": {"tensor": {"dtype": "DT_FLOAT", "tensorShape": {"dim": [{"size": "3"}, {"size": "3"}, {"size": "64"}, {"size": "64"}]}}}, "dtype": {"type": "DT_FLOAT"}}}, {"name": "1090", "op": "Const", "attr": {"value": {"tensor": {"dtype": "DT_FLOAT", "tensorShape": {"dim": [{"size": "64"}]}}}, "dtype": {"type": "DT_FLOAT"}}}, {"name": "1092", "op": "Const", "attr": {"value": {"tensor": {"dtype": "DT_FLOAT", "tensorShape": {"dim": [{"size": "3"}, {"size": "3"}, {"size": "64"}, {"size": "64"}]}}}, "dtype": {"type": "DT_FLOAT"}}}, {"name": "1094", "op": "Const", "attr": {"value": {"tensor": {"dtype": "DT_FLOAT", "tensorShape": {"dim": [{"size": "64"}]}}}, "dtype": {"type": "DT_FLOAT"}}}, {"name": "1096", "op": "Const", "attr": {"value": {"tensor": {"dtype": "DT_FLOAT", "tensorShape": {"dim": [{"size": "3"}, {"size": "3"}, {"size": "64"}, {"size": "64"}]}}}, "dtype": {"type": "DT_FLOAT"}}}, {"name": "1098", "op": "Const", "attr": {"value": {"tensor": {"dtype": "DT_FLOAT", "tensorShape": {"dim": [{"size": "64"}]}}}, "dtype": {"type": "DT_FLOAT"}}}, {"name": "PartitionedCall/model_8/tf.concat_2/concat/axis", "op": "Const", "attr": {"value": {"tensor": {"dtype": "DT_INT32", "tensorShape": {}}}, "dtype": {"type": "DT_INT32"}}}, {"name": "1104", "op": "Const", "attr": {"value": {"tensor": {"dtype": "DT_FLOAT", "tensorShape": {"dim": [{"size": "1"}, {"size": "1"}, {"size": "256"}, {"size": "128"}]}}}, "dtype": {"type": "DT_FLOAT"}}}, {"name": "1106", "op": "Const", "attr": {"value": {"tensor": {"dtype": "DT_FLOAT", "tensorShape": {"dim": [{"size": "128"}]}}}, "dtype": {"type": "DT_FLOAT"}}}, {"name": "1108", "op": "Const", "attr": {"value": {"tensor": {"dtype": "DT_INT32", "tensorShape": {"dim": [{"size": "4"}, {"size": "2"}]}}}, "dtype": {"type": "DT_INT32"}}}, {"name": "1110", "op": "Const", "attr": {"value": {"tensor": {"dtype": "DT_FLOAT", "tensorShape": {"dim": [{"size": "3"}, {"size": "3"}, {"size": "128"}, {"size": "256"}]}}}, "dtype": {"type": "DT_FLOAT"}}}, {"name": "1112", "op": "Const", "attr": {"value": {"tensor": {"dtype": "DT_FLOAT", "tensorShape": {"dim": [{"size": "256"}]}}}, "dtype": {"type": "DT_FLOAT"}}}, {"name": "1114", "op": "Const", "attr": {"value": {"tensor": {"dtype": "DT_FLOAT", "tensorShape": {"dim": [{"size": "1"}, {"size": "1"}, {"size": "256"}, {"size": "256"}]}}}, "dtype": {"type": "DT_FLOAT"}}}, {"name": "1116", "op": "Const", "attr": {"value": {"tensor": {"dtype": "DT_FLOAT", "tensorShape": {"dim": [{"size": "256"}]}}}, "dtype": {"type": "DT_FLOAT"}}}, {"name": "1118", "op": "Const", "attr": {"value": {"tensor": {"dtype": "DT_INT64", "tensorShape": {"dim": [{"size": "4"}]}}}, "dtype": {"type": "DT_INT64"}}}, {"name": "1120", "op": "Const", "attr": {"value": {"tensor": {"dtype": "DT_INT64", "tensorShape": {"dim": [{"size": "4"}]}}}, "dtype": {"type": "DT_INT64"}}}, {"name": "PartitionedCall/model_8/tf.strided_slice_7/ones_like", "op": "Const", "attr": {"value": {"tensor": {"dtype": "DT_INT64", "tensorShape": {"dim": [{"size": "4"}]}}}, "dtype": {"type": "DT_INT64"}}}, {"name": "1122", "op": "Const", "attr": {"value": {"tensor": {"dtype": "DT_FLOAT", "tensorShape": {"dim": [{"size": "3"}, {"size": "3"}, {"size": "128"}, {"size": "128"}]}}}, "dtype": {"type": "DT_FLOAT"}}}, {"name": "1124", "op": "Const", "attr": {"value": {"tensor": {"dtype": "DT_FLOAT", "tensorShape": {"dim": [{"size": "128"}]}}}, "dtype": {"type": "DT_FLOAT"}}}, {"name": "1126", "op": "Const", "attr": {"value": {"tensor": {"dtype": "DT_FLOAT", "tensorShape": {"dim": [{"size": "3"}, {"size": "3"}, {"size": "128"}, {"size": "128"}]}}}, "dtype": {"type": "DT_FLOAT"}}}, {"name": "1128", "op": "Const", "attr": {"value": {"tensor": {"dtype": "DT_FLOAT", "tensorShape": {"dim": [{"size": "128"}]}}}, "dtype": {"type": "DT_FLOAT"}}}, {"name": "PartitionedCall/model_8/tf.concat_3/concat/axis", "op": "Const", "attr": {"value": {"tensor": {"dtype": "DT_INT32", "tensorShape": {}}}, "dtype": {"type": "DT_INT32"}}}, {"name": "1134", "op": "Const", "attr": {"value": {"tensor": {"dtype": "DT_FLOAT", "tensorShape": {"dim": [{"size": "1"}, {"size": "1"}, {"size": "384"}, {"size": "256"}]}}}, "dtype": {"type": "DT_FLOAT"}}}, {"name": "1136", "op": "Const", "attr": {"value": {"tensor": {"dtype": "DT_FLOAT", "tensorShape": {"dim": [{"size": "256"}]}}}, "dtype": {"type": "DT_FLOAT"}}}, {"name": "1138", "op": "Const", "attr": {"value": {"tensor": {"dtype": "DT_FLOAT", "tensorShape": {"dim": [{"size": "1"}, {"size": "1"}, {"size": "256"}, {"size": "128"}]}}}, "dtype": {"type": "DT_FLOAT"}}}, {"name": "1140", "op": "Const", "attr": {"value": {"tensor": {"dtype": "DT_FLOAT", "tensorShape": {"dim": [{"size": "128"}]}}}, "dtype": {"type": "DT_FLOAT"}}}, {"name": "PartitionedCall/model_8/tf.concat_4/concat/axis", "op": "Const", "attr": {"value": {"tensor": {"dtype": "DT_INT32", "tensorShape": {}}}, "dtype": {"type": "DT_INT32"}}}, {"name": "1142", "op": "Const", "attr": {"value": {"tensor": {"dtype": "DT_FLOAT", "tensorShape": {"dim": [{"size": "1"}, {"size": "1"}, {"size": "512"}, {"size": "256"}]}}}, "dtype": {"type": "DT_FLOAT"}}}, {"name": "1144", "op": "Const", "attr": {"value": {"tensor": {"dtype": "DT_FLOAT", "tensorShape": {"dim": [{"size": "256"}]}}}, "dtype": {"type": "DT_FLOAT"}}}, {"name": "PartitionedCall/model_8/tf.concat_12/concat/axis", "op": "Const", "attr": {"value": {"tensor": {"dtype": "DT_INT32", "tensorShape": {}}}, "dtype": {"type": "DT_INT32"}}}, {"name": "1230", "op": "Const", "attr": {"value": {"tensor": {"dtype": "DT_FLOAT", "tensorShape": {"dim": [{"size": "1"}, {"size": "1"}, {"size": "384"}, {"size": "256"}]}}}, "dtype": {"type": "DT_FLOAT"}}}, {"name": "1232", "op": "Const", "attr": {"value": {"tensor": {"dtype": "DT_FLOAT", "tensorShape": {"dim": [{"size": "256"}]}}}, "dtype": {"type": "DT_FLOAT"}}}, {"name": "1234", "op": "Const", "attr": {"value": {"tensor": {"dtype": "DT_INT64", "tensorShape": {"dim": [{"size": "4"}]}}}, "dtype": {"type": "DT_INT64"}}}, {"name": "1236", "op": "Const", "attr": {"value": {"tensor": {"dtype": "DT_INT64", "tensorShape": {"dim": [{"size": "4"}]}}}, "dtype": {"type": "DT_INT64"}}}, {"name": "PartitionedCall/model_8/tf.strided_slice_15/ones_like", "op": "Const", "attr": {"value": {"tensor": {"dtype": "DT_INT64", "tensorShape": {"dim": [{"size": "4"}]}}}, "dtype": {"type": "DT_INT64"}}}, {"name": "1238", "op": "Const", "attr": {"value": {"tensor": {"dtype": "DT_FLOAT", "tensorShape": {"dim": [{"size": "3"}, {"size": "3"}, {"size": "128"}, {"size": "128"}]}}}, "dtype": {"type": "DT_FLOAT"}}}, {"name": "1240", "op": "Const", "attr": {"value": {"tensor": {"dtype": "DT_FLOAT", "tensorShape": {"dim": [{"size": "128"}]}}}, "dtype": {"type": "DT_FLOAT"}}}, {"name": "1242", "op": "Const", "attr": {"value": {"tensor": {"dtype": "DT_FLOAT", "tensorShape": {"dim": [{"size": "3"}, {"size": "3"}, {"size": "128"}, {"size": "128"}]}}}, "dtype": {"type": "DT_FLOAT"}}}, {"name": "1244", "op": "Const", "attr": {"value": {"tensor": {"dtype": "DT_FLOAT", "tensorShape": {"dim": [{"size": "128"}]}}}, "dtype": {"type": "DT_FLOAT"}}}, {"name": "PartitionedCall/model_8/tf.concat_14/concat/axis", "op": "Const", "attr": {"value": {"tensor": {"dtype": "DT_INT32", "tensorShape": {}}}, "dtype": {"type": "DT_INT32"}}}, {"name": "1250", "op": "Const", "attr": {"value": {"tensor": {"dtype": "DT_FLOAT", "tensorShape": {"dim": [{"size": "1"}, {"size": "1"}, {"size": "384"}, {"size": "256"}]}}}, "dtype": {"type": "DT_FLOAT"}}}, {"name": "1254", "op": "Const", "attr": {"value": {"tensor": {"dtype": "DT_FLOAT", "tensorShape": {"dim": [{"size": "256"}]}}}, "dtype": {"type": "DT_FLOAT"}}}, {"name": "1258", "op": "Const", "attr": {"value": {"tensor": {"dtype": "DT_FLOAT", "tensorShape": {"dim": [{"size": "3"}, {"size": "3"}, {"size": "256"}, {"size": "80"}]}}}, "dtype": {"type": "DT_FLOAT"}}}, {"name": "1268", "op": "Const", "attr": {"value": {"tensor": {"dtype": "DT_FLOAT", "tensorShape": {"dim": [{"size": "80"}]}}}, "dtype": {"type": "DT_FLOAT"}}}, {"name": "1282", "op": "Const", "attr": {"value": {"tensor": {"dtype": "DT_FLOAT", "tensorShape": {"dim": [{"size": "3"}, {"size": "3"}, {"size": "80"}, {"size": "80"}]}}}, "dtype": {"type": "DT_FLOAT"}}}, {"name": "1292", "op": "Const", "attr": {"value": {"tensor": {"dtype": "DT_FLOAT", "tensorShape": {"dim": [{"size": "80"}]}}}, "dtype": {"type": "DT_FLOAT"}}}, {"name": "1302", "op": "Const", "attr": {"value": {"tensor": {"dtype": "DT_FLOAT", "tensorShape": {"dim": [{"size": "1"}, {"size": "1"}, {"size": "80"}, {"size": "80"}]}}}, "dtype": {"type": "DT_FLOAT"}}}, {"name": "1316", "op": "Const", "attr": {"value": {"tensor": {"dtype": "DT_FLOAT", "tensorShape": {"dim": [{"size": "80"}]}}}, "dtype": {"type": "DT_FLOAT"}}}, {"name": "PartitionedCall/model_8/tf.concat_15/concat/axis", "op": "Const", "attr": {"value": {"tensor": {"dtype": "DT_INT32", "tensorShape": {}}}, "dtype": {"type": "DT_INT32"}}}, {"name": "PartitionedCall/model_8/tf.compat.v1.transpose_8/transpose/perm", "op": "Const", "attr": {"value": {"tensor": {"dtype": "DT_INT32", "tensorShape": {"dim": [{"size": "4"}]}}}, "dtype": {"type": "DT_INT32"}}}, {"name": "PartitionedCall/model_8/tf.reshape_2/Reshape/shape", "op": "Const", "attr": {"value": {"tensor": {"dtype": "DT_INT32", "tensorShape": {"dim": [{"size": "3"}]}}}, "dtype": {"type": "DT_INT32"}}}, {"name": "PartitionedCall/model_8/tf.concat_16/concat/axis", "op": "Const", "attr": {"value": {"tensor": {"dtype": "DT_INT32", "tensorShape": {}}}, "dtype": {"type": "DT_INT32"}}}, {"name": "1346", "op": "Const", "attr": {"value": {"tensor": {"dtype": "DT_INT64", "tensorShape": {"dim": [{"size": "3"}]}}}, "dtype": {"type": "DT_INT64"}}}, {"name": "1348", "op": "Const", "attr": {"value": {"tensor": {"dtype": "DT_INT64", "tensorShape": {"dim": [{"size": "3"}]}}}, "dtype": {"type": "DT_INT64"}}}, {"name": "PartitionedCall/model_8/tf.strided_slice_17/StridedSlice/strides", "op": "Const", "attr": {"value": {"tensor": {"dtype": "DT_INT64", "tensorShape": {"dim": [{"size": "3"}]}}}, "dtype": {"type": "DT_INT64"}}}, {"name": "PartitionedCall/model_8/output0/concat/axis", "op": "Const", "attr": {"value": {"tensor": {"dtype": "DT_INT32", "tensorShape": {}}}, "dtype": {"type": "DT_INT32"}}}, {"name": "x", "op": "Placeholder", "attr": {"shape": {"shape": {"dim": [{"size": "1"}, {"size": "640"}, {"size": "640"}, {"size": "3"}]}}, "dtype": {"type": "DT_FLOAT"}}}, {"name": "PartitionedCall/model_8/tf.compat.v1.pad/Pad", "op": "Pad", "input": ["x", "996"], "attr": {"Tpaddings": {"type": "DT_INT32"}, "T": {"type": "DT_FLOAT"}}}, {"name": "PartitionedCall/model_8/tf.nn.convolution/convolution", "op": "Conv2D", "input": ["PartitionedCall/model_8/tf.compat.v1.pad/Pad", "998"], "device": "/device:CPU:0", "attr": {"padding": {"s": "VkFMSUQ="}, "data_format": {"s": "TkhXQw=="}, "strides": {"list": {"i": ["1", "2", "2", "1"]}}, "use_cudnn_on_gpu": {"b": true}, "T": {"type": "DT_FLOAT"}, "explicit_paddings": {"list": {}}, "dilations": {"list": {"i": ["1", "1", "1", "1"]}}}}, {"name": "PartitionedCall/model_8/tf.math.add/Add", "op": "AddV2", "input": ["PartitionedCall/model_8/tf.nn.convolution/convolution", "1000"], "attr": {"T": {"type": "DT_FLOAT"}}}, {"name": "PartitionedCall/model_8/tf.math.sigmoid/Sigmoid", "op": "Sigmoid", "input": ["PartitionedCall/model_8/tf.math.add/Add"], "attr": {"T": {"type": "DT_FLOAT"}}}, {"name": "PartitionedCall/model_8/tf.math.multiply_2/Mul", "op": "Mul", "input": ["PartitionedCall/model_8/tf.math.add/Add", "PartitionedCall/model_8/tf.math.sigmoid/Sigmoid"], "attr": {"T": {"type": "DT_FLOAT"}}}, {"name": "PartitionedCall/model_8/tf.compat.v1.pad_1/Pad", "op": "Pad", "input": ["PartitionedCall/model_8/tf.math.multiply_2/Mul", "1002"], "attr": {"Tpaddings": {"type": "DT_INT32"}, "T": {"type": "DT_FLOAT"}}}, {"name": "PartitionedCall/model_8/tf.nn.convolution_1/convolution", "op": "Conv2D", "input": ["PartitionedCall/model_8/tf.compat.v1.pad_1/Pad", "1004"], "device": "/device:CPU:0", "attr": {"padding": {"s": "VkFMSUQ="}, "data_format": {"s": "TkhXQw=="}, "strides": {"list": {"i": ["1", "2", "2", "1"]}}, "use_cudnn_on_gpu": {"b": true}, "T": {"type": "DT_FLOAT"}, "explicit_paddings": {"list": {}}, "dilations": {"list": {"i": ["1", "1", "1", "1"]}}}}, {"name": "PartitionedCall/model_8/tf.math.add_1/Add", "op": "AddV2", "input": ["PartitionedCall/model_8/tf.nn.convolution_1/convolution", "1006"], "attr": {"T": {"type": "DT_FLOAT"}}}, {"name": "PartitionedCall/model_8/tf.math.sigmoid_1/Sigmoid", "op": "Sigmoid", "input": ["PartitionedCall/model_8/tf.math.add_1/Add"], "attr": {"T": {"type": "DT_FLOAT"}}}, {"name": "PartitionedCall/model_8/tf.math.multiply_5/Mul", "op": "Mul", "input": ["PartitionedCall/model_8/tf.math.add_1/Add", "PartitionedCall/model_8/tf.math.sigmoid_1/Sigmoid"], "attr": {"T": {"type": "DT_FLOAT"}}}, {"name": "PartitionedCall/model_8/tf.nn.convolution_2/convolution", "op": "Conv2D", "input": ["PartitionedCall/model_8/tf.math.multiply_5/Mul", "1008"], "device": "/device:CPU:0", "attr": {"padding": {"s": "U0FNRQ=="}, "data_format": {"s": "TkhXQw=="}, "use_cudnn_on_gpu": {"b": true}, "strides": {"list": {"i": ["1", "1", "1", "1"]}}, "T": {"type": "DT_FLOAT"}, "explicit_paddings": {"list": {}}, "dilations": {"list": {"i": ["1", "1", "1", "1"]}}}}, {"name": "PartitionedCall/model_8/tf.math.add_2/Add", "op": "AddV2", "input": ["PartitionedCall/model_8/tf.nn.convolution_2/convolution", "1010"], "attr": {"T": {"type": "DT_FLOAT"}}}, {"name": "PartitionedCall/model_8/tf.math.sigmoid_2/Sigmoid", "op": "Sigmoid", "input": ["PartitionedCall/model_8/tf.math.add_2/Add"], "attr": {"T": {"type": "DT_FLOAT"}}}, {"name": "PartitionedCall/model_8/tf.math.multiply_8/Mul", "op": "Mul", "input": ["PartitionedCall/model_8/tf.math.add_2/Add", "PartitionedCall/model_8/tf.math.sigmoid_2/Sigmoid"], "attr": {"T": {"type": "DT_FLOAT"}}}, {"name": "PartitionedCall/model_8/tf.strided_slice/StridedSlice", "op": "StridedSlice", "input": ["PartitionedCall/model_8/tf.math.multiply_8/Mul", "1024", "1026", "PartitionedCall/model_8/tf.strided_slice/ones_like"], "attr": {"shrink_axis_mask": {"i": "0"}, "Index": {"type": "DT_INT64"}, "new_axis_mask": {"i": "0"}, "begin_mask": {"i": "15"}, "T": {"type": "DT_FLOAT"}, "end_mask": {"i": "7"}, "ellipsis_mask": {"i": "0"}}}, {"name": "PartitionedCall/model_8/tf.strided_slice_1/StridedSlice", "op": "StridedSlice", "input": ["PartitionedCall/model_8/tf.math.multiply_8/Mul", "1012", "1014", "PartitionedCall/model_8/tf.strided_slice_1/ones_like"], "attr": {"shrink_axis_mask": {"i": "0"}, "Index": {"type": "DT_INT64"}, "new_axis_mask": {"i": "0"}, "begin_mask": {"i": "7"}, "T": {"type": "DT_FLOAT"}, "end_mask": {"i": "7"}, "ellipsis_mask": {"i": "0"}}}, {"name": "PartitionedCall/model_8/tf.nn.convolution_3/convolution", "op": "Conv2D", "input": ["PartitionedCall/model_8/tf.strided_slice_1/StridedSlice", "1016"], "device": "/device:CPU:0", "attr": {"padding": {"s": "U0FNRQ=="}, "data_format": {"s": "TkhXQw=="}, "use_cudnn_on_gpu": {"b": true}, "strides": {"list": {"i": ["1", "1", "1", "1"]}}, "T": {"type": "DT_FLOAT"}, "explicit_paddings": {"list": {}}, "dilations": {"list": {"i": ["1", "1", "1", "1"]}}}}, {"name": "PartitionedCall/model_8/tf.math.add_3/Add", "op": "AddV2", "input": ["PartitionedCall/model_8/tf.nn.convolution_3/convolution", "1018"], "attr": {"T": {"type": "DT_FLOAT"}}}, {"name": "PartitionedCall/model_8/tf.math.sigmoid_3/Sigmoid", "op": "Sigmoid", "input": ["PartitionedCall/model_8/tf.math.add_3/Add"], "attr": {"T": {"type": "DT_FLOAT"}}}, {"name": "PartitionedCall/model_8/tf.math.multiply_11/Mul", "op": "Mul", "input": ["PartitionedCall/model_8/tf.math.add_3/Add", "PartitionedCall/model_8/tf.math.sigmoid_3/Sigmoid"], "attr": {"T": {"type": "DT_FLOAT"}}}, {"name": "PartitionedCall/model_8/tf.nn.convolution_4/convolution", "op": "Conv2D", "input": ["PartitionedCall/model_8/tf.math.multiply_11/Mul", "1020"], "device": "/device:CPU:0", "attr": {"padding": {"s": "U0FNRQ=="}, "data_format": {"s": "TkhXQw=="}, "use_cudnn_on_gpu": {"b": true}, "strides": {"list": {"i": ["1", "1", "1", "1"]}}, "T": {"type": "DT_FLOAT"}, "explicit_paddings": {"list": {}}, "dilations": {"list": {"i": ["1", "1", "1", "1"]}}}}, {"name": "PartitionedCall/model_8/tf.math.add_4/Add", "op": "AddV2", "input": ["PartitionedCall/model_8/tf.nn.convolution_4/convolution", "1022"], "attr": {"T": {"type": "DT_FLOAT"}}}, {"name": "PartitionedCall/model_8/tf.math.sigmoid_4/Sigmoid", "op": "Sigmoid", "input": ["PartitionedCall/model_8/tf.math.add_4/Add"], "attr": {"T": {"type": "DT_FLOAT"}}}, {"name": "PartitionedCall/model_8/tf.math.multiply_14/Mul", "op": "Mul", "input": ["PartitionedCall/model_8/tf.math.add_4/Add", "PartitionedCall/model_8/tf.math.sigmoid_4/Sigmoid"], "attr": {"T": {"type": "DT_FLOAT"}}}, {"name": "PartitionedCall/model_8/tf.math.add_6/Add", "op": "AddV2", "input": ["PartitionedCall/model_8/tf.strided_slice_1/StridedSlice", "PartitionedCall/model_8/tf.math.multiply_14/Mul"], "attr": {"T": {"type": "DT_FLOAT"}}}, {"name": "PartitionedCall/model_8/tf.concat/concat", "op": "ConcatV2", "input": ["PartitionedCall/model_8/tf.strided_slice/StridedSlice", "PartitionedCall/model_8/tf.strided_slice_1/StridedSlice", "PartitionedCall/model_8/tf.math.add_6/Add", "PartitionedCall/model_8/tf.concat/concat/axis"], "attr": {"N": {"i": "3"}, "T": {"type": "DT_FLOAT"}, "Tidx": {"type": "DT_INT32"}}}, {"name": "PartitionedCall/model_8/tf.nn.convolution_5/convolution", "op": "Conv2D", "input": ["PartitionedCall/model_8/tf.concat/concat", "1028"], "device": "/device:CPU:0", "attr": {"padding": {"s": "U0FNRQ=="}, "data_format": {"s": "TkhXQw=="}, "strides": {"list": {"i": ["1", "1", "1", "1"]}}, "use_cudnn_on_gpu": {"b": true}, "T": {"type": "DT_FLOAT"}, "explicit_paddings": {"list": {}}, "dilations": {"list": {"i": ["1", "1", "1", "1"]}}}}, {"name": "PartitionedCall/model_8/tf.math.add_7/Add", "op": "AddV2", "input": ["PartitionedCall/model_8/tf.nn.convolution_5/convolution", "1030"], "attr": {"T": {"type": "DT_FLOAT"}}}, {"name": "PartitionedCall/model_8/tf.math.sigmoid_5/Sigmoid", "op": "Sigmoid", "input": ["PartitionedCall/model_8/tf.math.add_7/Add"], "attr": {"T": {"type": "DT_FLOAT"}}}, {"name": "PartitionedCall/model_8/tf.math.multiply_18/Mul", "op": "Mul", "input": ["PartitionedCall/model_8/tf.math.add_7/Add", "PartitionedCall/model_8/tf.math.sigmoid_5/Sigmoid"], "attr": {"T": {"type": "DT_FLOAT"}}}, {"name": "PartitionedCall/model_8/tf.compat.v1.pad_2/Pad", "op": "Pad", "input": ["PartitionedCall/model_8/tf.math.multiply_18/Mul", "1032"], "attr": {"Tpaddings": {"type": "DT_INT32"}, "T": {"type": "DT_FLOAT"}}}, {"name": "PartitionedCall/model_8/tf.nn.convolution_6/convolution", "op": "Conv2D", "input": ["PartitionedCall/model_8/tf.compat.v1.pad_2/Pad", "1034"], "device": "/device:CPU:0", "attr": {"padding": {"s": "VkFMSUQ="}, "data_format": {"s": "TkhXQw=="}, "use_cudnn_on_gpu": {"b": true}, "strides": {"list": {"i": ["1", "2", "2", "1"]}}, "T": {"type": "DT_FLOAT"}, "explicit_paddings": {"list": {}}, "dilations": {"list": {"i": ["1", "1", "1", "1"]}}}}, {"name": "PartitionedCall/model_8/tf.math.add_8/Add", "op": "AddV2", "input": ["PartitionedCall/model_8/tf.nn.convolution_6/convolution", "1036"], "attr": {"T": {"type": "DT_FLOAT"}}}, {"name": "PartitionedCall/model_8/tf.math.sigmoid_6/Sigmoid", "op": "Sigmoid", "input": ["PartitionedCall/model_8/tf.math.add_8/Add"], "attr": {"T": {"type": "DT_FLOAT"}}}, {"name": "PartitionedCall/model_8/tf.math.multiply_21/Mul", "op": "Mul", "input": ["PartitionedCall/model_8/tf.math.add_8/Add", "PartitionedCall/model_8/tf.math.sigmoid_6/Sigmoid"], "attr": {"T": {"type": "DT_FLOAT"}}}, {"name": "PartitionedCall/model_8/tf.nn.convolution_7/convolution", "op": "Conv2D", "input": ["PartitionedCall/model_8/tf.math.multiply_21/Mul", "1038"], "device": "/device:CPU:0", "attr": {"padding": {"s": "U0FNRQ=="}, "data_format": {"s": "TkhXQw=="}, "strides": {"list": {"i": ["1", "1", "1", "1"]}}, "use_cudnn_on_gpu": {"b": true}, "T": {"type": "DT_FLOAT"}, "explicit_paddings": {"list": {}}, "dilations": {"list": {"i": ["1", "1", "1", "1"]}}}}, {"name": "PartitionedCall/model_8/tf.math.add_9/Add", "op": "AddV2", "input": ["PartitionedCall/model_8/tf.nn.convolution_7/convolution", "1040"], "attr": {"T": {"type": "DT_FLOAT"}}}, {"name": "PartitionedCall/model_8/tf.math.sigmoid_7/Sigmoid", "op": "Sigmoid", "input": ["PartitionedCall/model_8/tf.math.add_9/Add"], "attr": {"T": {"type": "DT_FLOAT"}}}, {"name": "PartitionedCall/model_8/tf.math.multiply_24/Mul", "op": "Mul", "input": ["PartitionedCall/model_8/tf.math.add_9/Add", "PartitionedCall/model_8/tf.math.sigmoid_7/Sigmoid"], "attr": {"T": {"type": "DT_FLOAT"}}}, {"name": "PartitionedCall/model_8/tf.strided_slice_2/StridedSlice", "op": "StridedSlice", "input": ["PartitionedCall/model_8/tf.math.multiply_24/Mul", "1062", "1064", "PartitionedCall/model_8/tf.strided_slice_2/ones_like"], "attr": {"shrink_axis_mask": {"i": "0"}, "new_axis_mask": {"i": "0"}, "Index": {"type": "DT_INT64"}, "begin_mask": {"i": "15"}, "end_mask": {"i": "7"}, "T": {"type": "DT_FLOAT"}, "ellipsis_mask": {"i": "0"}}}, {"name": "PartitionedCall/model_8/tf.strided_slice_3/StridedSlice", "op": "StridedSlice", "input": ["PartitionedCall/model_8/tf.math.multiply_24/Mul", "1042", "1044", "PartitionedCall/model_8/tf.strided_slice_3/ones_like"], "attr": {"shrink_axis_mask": {"i": "0"}, "new_axis_mask": {"i": "0"}, "Index": {"type": "DT_INT64"}, "begin_mask": {"i": "7"}, "T": {"type": "DT_FLOAT"}, "end_mask": {"i": "7"}, "ellipsis_mask": {"i": "0"}}}, {"name": "PartitionedCall/model_8/tf.nn.convolution_8/convolution", "op": "Conv2D", "input": ["PartitionedCall/model_8/tf.strided_slice_3/StridedSlice", "1046"], "device": "/device:CPU:0", "attr": {"padding": {"s": "U0FNRQ=="}, "data_format": {"s": "TkhXQw=="}, "strides": {"list": {"i": ["1", "1", "1", "1"]}}, "use_cudnn_on_gpu": {"b": true}, "T": {"type": "DT_FLOAT"}, "explicit_paddings": {"list": {}}, "dilations": {"list": {"i": ["1", "1", "1", "1"]}}}}, {"name": "PartitionedCall/model_8/tf.math.add_10/Add", "op": "AddV2", "input": ["PartitionedCall/model_8/tf.nn.convolution_8/convolution", "1048"], "attr": {"T": {"type": "DT_FLOAT"}}}, {"name": "PartitionedCall/model_8/tf.math.sigmoid_8/Sigmoid", "op": "Sigmoid", "input": ["PartitionedCall/model_8/tf.math.add_10/Add"], "attr": {"T": {"type": "DT_FLOAT"}}}, {"name": "PartitionedCall/model_8/tf.math.multiply_27/Mul", "op": "Mul", "input": ["PartitionedCall/model_8/tf.math.add_10/Add", "PartitionedCall/model_8/tf.math.sigmoid_8/Sigmoid"], "attr": {"T": {"type": "DT_FLOAT"}}}, {"name": "PartitionedCall/model_8/tf.nn.convolution_9/convolution", "op": "Conv2D", "input": ["PartitionedCall/model_8/tf.math.multiply_27/Mul", "1050"], "device": "/device:CPU:0", "attr": {"padding": {"s": "U0FNRQ=="}, "data_format": {"s": "TkhXQw=="}, "use_cudnn_on_gpu": {"b": true}, "strides": {"list": {"i": ["1", "1", "1", "1"]}}, "T": {"type": "DT_FLOAT"}, "explicit_paddings": {"list": {}}, "dilations": {"list": {"i": ["1", "1", "1", "1"]}}}}, {"name": "PartitionedCall/model_8/tf.math.add_11/Add", "op": "AddV2", "input": ["PartitionedCall/model_8/tf.nn.convolution_9/convolution", "1052"], "attr": {"T": {"type": "DT_FLOAT"}}}, {"name": "PartitionedCall/model_8/tf.math.sigmoid_9/Sigmoid", "op": "Sigmoid", "input": ["PartitionedCall/model_8/tf.math.add_11/Add"], "attr": {"T": {"type": "DT_FLOAT"}}}, {"name": "PartitionedCall/model_8/tf.math.multiply_30/Mul", "op": "Mul", "input": ["PartitionedCall/model_8/tf.math.add_11/Add", "PartitionedCall/model_8/tf.math.sigmoid_9/Sigmoid"], "attr": {"T": {"type": "DT_FLOAT"}}}, {"name": "PartitionedCall/model_8/tf.math.add_13/Add", "op": "AddV2", "input": ["PartitionedCall/model_8/tf.strided_slice_3/StridedSlice", "PartitionedCall/model_8/tf.math.multiply_30/Mul"], "attr": {"T": {"type": "DT_FLOAT"}}}, {"name": "PartitionedCall/model_8/tf.nn.convolution_10/convolution", "op": "Conv2D", "input": ["PartitionedCall/model_8/tf.math.add_13/Add", "1054"], "device": "/device:CPU:0", "attr": {"padding": {"s": "U0FNRQ=="}, "data_format": {"s": "TkhXQw=="}, "strides": {"list": {"i": ["1", "1", "1", "1"]}}, "use_cudnn_on_gpu": {"b": true}, "T": {"type": "DT_FLOAT"}, "explicit_paddings": {"list": {}}, "dilations": {"list": {"i": ["1", "1", "1", "1"]}}}}, {"name": "PartitionedCall/model_8/tf.math.add_14/Add", "op": "AddV2", "input": ["PartitionedCall/model_8/tf.nn.convolution_10/convolution", "1056"], "attr": {"T": {"type": "DT_FLOAT"}}}, {"name": "PartitionedCall/model_8/tf.math.sigmoid_10/Sigmoid", "op": "Sigmoid", "input": ["PartitionedCall/model_8/tf.math.add_14/Add"], "attr": {"T": {"type": "DT_FLOAT"}}}, {"name": "PartitionedCall/model_8/tf.math.multiply_34/Mul", "op": "Mul", "input": ["PartitionedCall/model_8/tf.math.add_14/Add", "PartitionedCall/model_8/tf.math.sigmoid_10/Sigmoid"], "attr": {"T": {"type": "DT_FLOAT"}}}, {"name": "PartitionedCall/model_8/tf.nn.convolution_11/convolution", "op": "Conv2D", "input": ["PartitionedCall/model_8/tf.math.multiply_34/Mul", "1058"], "device": "/device:CPU:0", "attr": {"padding": {"s": "U0FNRQ=="}, "data_format": {"s": "TkhXQw=="}, "strides": {"list": {"i": ["1", "1", "1", "1"]}}, "use_cudnn_on_gpu": {"b": true}, "T": {"type": "DT_FLOAT"}, "explicit_paddings": {"list": {}}, "dilations": {"list": {"i": ["1", "1", "1", "1"]}}}}, {"name": "PartitionedCall/model_8/tf.math.add_15/Add", "op": "AddV2", "input": ["PartitionedCall/model_8/tf.nn.convolution_11/convolution", "1060"], "attr": {"T": {"type": "DT_FLOAT"}}}, {"name": "PartitionedCall/model_8/tf.math.sigmoid_11/Sigmoid", "op": "Sigmoid", "input": ["PartitionedCall/model_8/tf.math.add_15/Add"], "attr": {"T": {"type": "DT_FLOAT"}}}, {"name": "PartitionedCall/model_8/tf.math.multiply_37/Mul", "op": "Mul", "input": ["PartitionedCall/model_8/tf.math.add_15/Add", "PartitionedCall/model_8/tf.math.sigmoid_11/Sigmoid"], "attr": {"T": {"type": "DT_FLOAT"}}}, {"name": "PartitionedCall/model_8/tf.math.add_17/Add", "op": "AddV2", "input": ["PartitionedCall/model_8/tf.math.add_13/Add", "PartitionedCall/model_8/tf.math.multiply_37/Mul"], "attr": {"T": {"type": "DT_FLOAT"}}}, {"name": "PartitionedCall/model_8/tf.concat_1/concat", "op": "ConcatV2", "input": ["PartitionedCall/model_8/tf.strided_slice_2/StridedSlice", "PartitionedCall/model_8/tf.strided_slice_3/StridedSlice", "PartitionedCall/model_8/tf.math.add_13/Add", "PartitionedCall/model_8/tf.math.add_17/Add", "PartitionedCall/model_8/tf.concat_1/concat/axis"], "attr": {"N": {"i": "4"}, "Tidx": {"type": "DT_INT32"}, "T": {"type": "DT_FLOAT"}}}, {"name": "PartitionedCall/model_8/tf.nn.convolution_12/convolution", "op": "Conv2D", "input": ["PartitionedCall/model_8/tf.concat_1/concat", "1066"], "device": "/device:CPU:0", "attr": {"padding": {"s": "U0FNRQ=="}, "data_format": {"s": "TkhXQw=="}, "strides": {"list": {"i": ["1", "1", "1", "1"]}}, "use_cudnn_on_gpu": {"b": true}, "T": {"type": "DT_FLOAT"}, "explicit_paddings": {"list": {}}, "dilations": {"list": {"i": ["1", "1", "1", "1"]}}}}, {"name": "PartitionedCall/model_8/tf.math.add_18/Add", "op": "AddV2", "input": ["PartitionedCall/model_8/tf.nn.convolution_12/convolution", "1068"], "attr": {"T": {"type": "DT_FLOAT"}}}, {"name": "PartitionedCall/model_8/tf.math.sigmoid_12/Sigmoid", "op": "Sigmoid", "input": ["PartitionedCall/model_8/tf.math.add_18/Add"], "attr": {"T": {"type": "DT_FLOAT"}}}, {"name": "PartitionedCall/model_8/tf.math.multiply_41/Mul", "op": "Mul", "input": ["PartitionedCall/model_8/tf.math.add_18/Add", "PartitionedCall/model_8/tf.math.sigmoid_12/Sigmoid"], "attr": {"T": {"type": "DT_FLOAT"}}}, {"name": "PartitionedCall/model_8/tf.compat.v1.pad_3/Pad", "op": "Pad", "input": ["PartitionedCall/model_8/tf.math.multiply_41/Mul", "1070"], "attr": {"Tpaddings": {"type": "DT_INT32"}, "T": {"type": "DT_FLOAT"}}}, {"name": "PartitionedCall/model_8/tf.nn.convolution_13/convolution", "op": "Conv2D", "input": ["PartitionedCall/model_8/tf.compat.v1.pad_3/Pad", "1072"], "device": "/device:CPU:0", "attr": {"padding": {"s": "VkFMSUQ="}, "data_format": {"s": "TkhXQw=="}, "strides": {"list": {"i": ["1", "2", "2", "1"]}}, "use_cudnn_on_gpu": {"b": true}, "T": {"type": "DT_FLOAT"}, "explicit_paddings": {"list": {}}, "dilations": {"list": {"i": ["1", "1", "1", "1"]}}}}, {"name": "PartitionedCall/model_8/tf.math.add_19/Add", "op": "AddV2", "input": ["PartitionedCall/model_8/tf.nn.convolution_13/convolution", "1074"], "attr": {"T": {"type": "DT_FLOAT"}}}, {"name": "PartitionedCall/model_8/tf.math.sigmoid_13/Sigmoid", "op": "Sigmoid", "input": ["PartitionedCall/model_8/tf.math.add_19/Add"], "attr": {"T": {"type": "DT_FLOAT"}}}, {"name": "PartitionedCall/model_8/tf.math.multiply_44/Mul", "op": "Mul", "input": ["PartitionedCall/model_8/tf.math.add_19/Add", "PartitionedCall/model_8/tf.math.sigmoid_13/Sigmoid"], "attr": {"T": {"type": "DT_FLOAT"}}}, {"name": "PartitionedCall/model_8/tf.nn.convolution_14/convolution", "op": "Conv2D", "input": ["PartitionedCall/model_8/tf.math.multiply_44/Mul", "1076"], "device": "/device:CPU:0", "attr": {"padding": {"s": "U0FNRQ=="}, "data_format": {"s": "TkhXQw=="}, "strides": {"list": {"i": ["1", "1", "1", "1"]}}, "use_cudnn_on_gpu": {"b": true}, "T": {"type": "DT_FLOAT"}, "explicit_paddings": {"list": {}}, "dilations": {"list": {"i": ["1", "1", "1", "1"]}}}}, {"name": "PartitionedCall/model_8/tf.math.add_20/Add", "op": "AddV2", "input": ["PartitionedCall/model_8/tf.nn.convolution_14/convolution", "1078"], "attr": {"T": {"type": "DT_FLOAT"}}}, {"name": "PartitionedCall/model_8/tf.math.sigmoid_14/Sigmoid", "op": "Sigmoid", "input": ["PartitionedCall/model_8/tf.math.add_20/Add"], "attr": {"T": {"type": "DT_FLOAT"}}}, {"name": "PartitionedCall/model_8/tf.math.multiply_47/Mul", "op": "Mul", "input": ["PartitionedCall/model_8/tf.math.add_20/Add", "PartitionedCall/model_8/tf.math.sigmoid_14/Sigmoid"], "attr": {"T": {"type": "DT_FLOAT"}}}, {"name": "PartitionedCall/model_8/tf.strided_slice_4/StridedSlice", "op": "StridedSlice", "input": ["PartitionedCall/model_8/tf.math.multiply_47/Mul", "1100", "1102", "PartitionedCall/model_8/tf.strided_slice_4/ones_like"], "attr": {"shrink_axis_mask": {"i": "0"}, "Index": {"type": "DT_INT64"}, "new_axis_mask": {"i": "0"}, "begin_mask": {"i": "15"}, "T": {"type": "DT_FLOAT"}, "end_mask": {"i": "7"}, "ellipsis_mask": {"i": "0"}}}, {"name": "PartitionedCall/model_8/tf.strided_slice_5/StridedSlice", "op": "StridedSlice", "input": ["PartitionedCall/model_8/tf.math.multiply_47/Mul", "1080", "1082", "PartitionedCall/model_8/tf.strided_slice_5/ones_like"], "attr": {"shrink_axis_mask": {"i": "0"}, "new_axis_mask": {"i": "0"}, "Index": {"type": "DT_INT64"}, "begin_mask": {"i": "7"}, "end_mask": {"i": "7"}, "T": {"type": "DT_FLOAT"}, "ellipsis_mask": {"i": "0"}}}, {"name": "PartitionedCall/model_8/tf.nn.convolution_15/convolution", "op": "Conv2D", "input": ["PartitionedCall/model_8/tf.strided_slice_5/StridedSlice", "1084"], "device": "/device:CPU:0", "attr": {"padding": {"s": "U0FNRQ=="}, "data_format": {"s": "TkhXQw=="}, "use_cudnn_on_gpu": {"b": true}, "strides": {"list": {"i": ["1", "1", "1", "1"]}}, "T": {"type": "DT_FLOAT"}, "explicit_paddings": {"list": {}}, "dilations": {"list": {"i": ["1", "1", "1", "1"]}}}}, {"name": "PartitionedCall/model_8/tf.math.add_21/Add", "op": "AddV2", "input": ["PartitionedCall/model_8/tf.nn.convolution_15/convolution", "1086"], "attr": {"T": {"type": "DT_FLOAT"}}}, {"name": "PartitionedCall/model_8/tf.math.sigmoid_15/Sigmoid", "op": "Sigmoid", "input": ["PartitionedCall/model_8/tf.math.add_21/Add"], "attr": {"T": {"type": "DT_FLOAT"}}}, {"name": "PartitionedCall/model_8/tf.math.multiply_50/Mul", "op": "Mul", "input": ["PartitionedCall/model_8/tf.math.add_21/Add", "PartitionedCall/model_8/tf.math.sigmoid_15/Sigmoid"], "attr": {"T": {"type": "DT_FLOAT"}}}, {"name": "PartitionedCall/model_8/tf.nn.convolution_16/convolution", "op": "Conv2D", "input": ["PartitionedCall/model_8/tf.math.multiply_50/Mul", "1088"], "device": "/device:CPU:0", "attr": {"padding": {"s": "U0FNRQ=="}, "data_format": {"s": "TkhXQw=="}, "strides": {"list": {"i": ["1", "1", "1", "1"]}}, "use_cudnn_on_gpu": {"b": true}, "T": {"type": "DT_FLOAT"}, "explicit_paddings": {"list": {}}, "dilations": {"list": {"i": ["1", "1", "1", "1"]}}}}, {"name": "PartitionedCall/model_8/tf.math.add_22/Add", "op": "AddV2", "input": ["PartitionedCall/model_8/tf.nn.convolution_16/convolution", "1090"], "attr": {"T": {"type": "DT_FLOAT"}}}, {"name": "PartitionedCall/model_8/tf.math.sigmoid_16/Sigmoid", "op": "Sigmoid", "input": ["PartitionedCall/model_8/tf.math.add_22/Add"], "attr": {"T": {"type": "DT_FLOAT"}}}, {"name": "PartitionedCall/model_8/tf.math.multiply_53/Mul", "op": "Mul", "input": ["PartitionedCall/model_8/tf.math.add_22/Add", "PartitionedCall/model_8/tf.math.sigmoid_16/Sigmoid"], "attr": {"T": {"type": "DT_FLOAT"}}}, {"name": "PartitionedCall/model_8/tf.math.add_24/Add", "op": "AddV2", "input": ["PartitionedCall/model_8/tf.strided_slice_5/StridedSlice", "PartitionedCall/model_8/tf.math.multiply_53/Mul"], "attr": {"T": {"type": "DT_FLOAT"}}}, {"name": "PartitionedCall/model_8/tf.nn.convolution_17/convolution", "op": "Conv2D", "input": ["PartitionedCall/model_8/tf.math.add_24/Add", "1092"], "device": "/device:CPU:0", "attr": {"padding": {"s": "U0FNRQ=="}, "data_format": {"s": "TkhXQw=="}, "use_cudnn_on_gpu": {"b": true}, "strides": {"list": {"i": ["1", "1", "1", "1"]}}, "T": {"type": "DT_FLOAT"}, "explicit_paddings": {"list": {}}, "dilations": {"list": {"i": ["1", "1", "1", "1"]}}}}, {"name": "PartitionedCall/model_8/tf.math.add_25/Add", "op": "AddV2", "input": ["PartitionedCall/model_8/tf.nn.convolution_17/convolution", "1094"], "attr": {"T": {"type": "DT_FLOAT"}}}, {"name": "PartitionedCall/model_8/tf.math.sigmoid_17/Sigmoid", "op": "Sigmoid", "input": ["PartitionedCall/model_8/tf.math.add_25/Add"], "attr": {"T": {"type": "DT_FLOAT"}}}, {"name": "PartitionedCall/model_8/tf.math.multiply_57/Mul", "op": "Mul", "input": ["PartitionedCall/model_8/tf.math.add_25/Add", "PartitionedCall/model_8/tf.math.sigmoid_17/Sigmoid"], "attr": {"T": {"type": "DT_FLOAT"}}}, {"name": "PartitionedCall/model_8/tf.nn.convolution_18/convolution", "op": "Conv2D", "input": ["PartitionedCall/model_8/tf.math.multiply_57/Mul", "1096"], "device": "/device:CPU:0", "attr": {"padding": {"s": "U0FNRQ=="}, "data_format": {"s": "TkhXQw=="}, "use_cudnn_on_gpu": {"b": true}, "strides": {"list": {"i": ["1", "1", "1", "1"]}}, "T": {"type": "DT_FLOAT"}, "explicit_paddings": {"list": {}}, "dilations": {"list": {"i": ["1", "1", "1", "1"]}}}}, {"name": "PartitionedCall/model_8/tf.math.add_26/Add", "op": "AddV2", "input": ["PartitionedCall/model_8/tf.nn.convolution_18/convolution", "1098"], "attr": {"T": {"type": "DT_FLOAT"}}}, {"name": "PartitionedCall/model_8/tf.math.sigmoid_18/Sigmoid", "op": "Sigmoid", "input": ["PartitionedCall/model_8/tf.math.add_26/Add"], "attr": {"T": {"type": "DT_FLOAT"}}}, {"name": "PartitionedCall/model_8/tf.math.multiply_60/Mul", "op": "Mul", "input": ["PartitionedCall/model_8/tf.math.add_26/Add", "PartitionedCall/model_8/tf.math.sigmoid_18/Sigmoid"], "attr": {"T": {"type": "DT_FLOAT"}}}, {"name": "PartitionedCall/model_8/tf.math.add_28/Add", "op": "AddV2", "input": ["PartitionedCall/model_8/tf.math.add_24/Add", "PartitionedCall/model_8/tf.math.multiply_60/Mul"], "attr": {"T": {"type": "DT_FLOAT"}}}, {"name": "PartitionedCall/model_8/tf.concat_2/concat", "op": "ConcatV2", "input": ["PartitionedCall/model_8/tf.strided_slice_4/StridedSlice", "PartitionedCall/model_8/tf.strided_slice_5/StridedSlice", "PartitionedCall/model_8/tf.math.add_24/Add", "PartitionedCall/model_8/tf.math.add_28/Add", "PartitionedCall/model_8/tf.concat_2/concat/axis"], "attr": {"N": {"i": "4"}, "Tidx": {"type": "DT_INT32"}, "T": {"type": "DT_FLOAT"}}}, {"name": "PartitionedCall/model_8/tf.nn.convolution_19/convolution", "op": "Conv2D", "input": ["PartitionedCall/model_8/tf.concat_2/concat", "1104"], "device": "/device:CPU:0", "attr": {"padding": {"s": "U0FNRQ=="}, "data_format": {"s": "TkhXQw=="}, "use_cudnn_on_gpu": {"b": true}, "strides": {"list": {"i": ["1", "1", "1", "1"]}}, "T": {"type": "DT_FLOAT"}, "explicit_paddings": {"list": {}}, "dilations": {"list": {"i": ["1", "1", "1", "1"]}}}}, {"name": "PartitionedCall/model_8/tf.math.add_29/Add", "op": "AddV2", "input": ["PartitionedCall/model_8/tf.nn.convolution_19/convolution", "1106"], "attr": {"T": {"type": "DT_FLOAT"}}}, {"name": "PartitionedCall/model_8/tf.math.sigmoid_19/Sigmoid", "op": "Sigmoid", "input": ["PartitionedCall/model_8/tf.math.add_29/Add"], "attr": {"T": {"type": "DT_FLOAT"}}}, {"name": "PartitionedCall/model_8/tf.math.multiply_64/Mul", "op": "Mul", "input": ["PartitionedCall/model_8/tf.math.add_29/Add", "PartitionedCall/model_8/tf.math.sigmoid_19/Sigmoid"], "attr": {"T": {"type": "DT_FLOAT"}}}, {"name": "PartitionedCall/model_8/tf.compat.v1.pad_4/Pad", "op": "Pad", "input": ["PartitionedCall/model_8/tf.math.multiply_64/Mul", "1108"], "attr": {"Tpaddings": {"type": "DT_INT32"}, "T": {"type": "DT_FLOAT"}}}, {"name": "PartitionedCall/model_8/tf.nn.convolution_20/convolution", "op": "Conv2D", "input": ["PartitionedCall/model_8/tf.compat.v1.pad_4/Pad", "1110"], "device": "/device:CPU:0", "attr": {"padding": {"s": "VkFMSUQ="}, "data_format": {"s": "TkhXQw=="}, "use_cudnn_on_gpu": {"b": true}, "strides": {"list": {"i": ["1", "2", "2", "1"]}}, "T": {"type": "DT_FLOAT"}, "explicit_paddings": {"list": {}}, "dilations": {"list": {"i": ["1", "1", "1", "1"]}}}}, {"name": "PartitionedCall/model_8/tf.math.add_30/Add", "op": "AddV2", "input": ["PartitionedCall/model_8/tf.nn.convolution_20/convolution", "1112"], "attr": {"T": {"type": "DT_FLOAT"}}}, {"name": "PartitionedCall/model_8/tf.math.sigmoid_20/Sigmoid", "op": "Sigmoid", "input": ["PartitionedCall/model_8/tf.math.add_30/Add"], "attr": {"T": {"type": "DT_FLOAT"}}}, {"name": "PartitionedCall/model_8/tf.math.multiply_67/Mul", "op": "Mul", "input": ["PartitionedCall/model_8/tf.math.add_30/Add", "PartitionedCall/model_8/tf.math.sigmoid_20/Sigmoid"], "attr": {"T": {"type": "DT_FLOAT"}}}, {"name": "PartitionedCall/model_8/tf.nn.convolution_21/convolution", "op": "Conv2D", "input": ["PartitionedCall/model_8/tf.math.multiply_67/Mul", "1114"], "device": "/device:CPU:0", "attr": {"padding": {"s": "U0FNRQ=="}, "data_format": {"s": "TkhXQw=="}, "use_cudnn_on_gpu": {"b": true}, "strides": {"list": {"i": ["1", "1", "1", "1"]}}, "T": {"type": "DT_FLOAT"}, "explicit_paddings": {"list": {}}, "dilations": {"list": {"i": ["1", "1", "1", "1"]}}}}, {"name": "PartitionedCall/model_8/tf.math.add_31/Add", "op": "AddV2", "input": ["PartitionedCall/model_8/tf.nn.convolution_21/convolution", "1116"], "attr": {"T": {"type": "DT_FLOAT"}}}, {"name": "PartitionedCall/model_8/tf.math.sigmoid_21/Sigmoid", "op": "Sigmoid", "input": ["PartitionedCall/model_8/tf.math.add_31/Add"], "attr": {"T": {"type": "DT_FLOAT"}}}, {"name": "PartitionedCall/model_8/tf.math.multiply_70/Mul", "op": "Mul", "input": ["PartitionedCall/model_8/tf.math.add_31/Add", "PartitionedCall/model_8/tf.math.sigmoid_21/Sigmoid"], "attr": {"T": {"type": "DT_FLOAT"}}}, {"name": "PartitionedCall/model_8/tf.strided_slice_6/StridedSlice", "op": "StridedSlice", "input": ["PartitionedCall/model_8/tf.math.multiply_70/Mul", "1130", "1132", "PartitionedCall/model_8/tf.strided_slice_6/ones_like"], "attr": {"shrink_axis_mask": {"i": "0"}, "new_axis_mask": {"i": "0"}, "Index": {"type": "DT_INT64"}, "begin_mask": {"i": "15"}, "T": {"type": "DT_FLOAT"}, "end_mask": {"i": "7"}, "ellipsis_mask": {"i": "0"}}}, {"name": "PartitionedCall/model_8/tf.strided_slice_7/StridedSlice", "op": "StridedSlice", "input": ["PartitionedCall/model_8/tf.math.multiply_70/Mul", "1118", "1120", "PartitionedCall/model_8/tf.strided_slice_7/ones_like"], "attr": {"shrink_axis_mask": {"i": "0"}, "new_axis_mask": {"i": "0"}, "Index": {"type": "DT_INT64"}, "begin_mask": {"i": "7"}, "end_mask": {"i": "7"}, "T": {"type": "DT_FLOAT"}, "ellipsis_mask": {"i": "0"}}}, {"name": "PartitionedCall/model_8/tf.nn.convolution_22/convolution", "op": "Conv2D", "input": ["PartitionedCall/model_8/tf.strided_slice_7/StridedSlice", "1122"], "device": "/device:CPU:0", "attr": {"padding": {"s": "U0FNRQ=="}, "data_format": {"s": "TkhXQw=="}, "strides": {"list": {"i": ["1", "1", "1", "1"]}}, "use_cudnn_on_gpu": {"b": true}, "T": {"type": "DT_FLOAT"}, "explicit_paddings": {"list": {}}, "dilations": {"list": {"i": ["1", "1", "1", "1"]}}}}, {"name": "PartitionedCall/model_8/tf.math.add_32/Add", "op": "AddV2", "input": ["PartitionedCall/model_8/tf.nn.convolution_22/convolution", "1124"], "attr": {"T": {"type": "DT_FLOAT"}}}, {"name": "PartitionedCall/model_8/tf.math.sigmoid_22/Sigmoid", "op": "Sigmoid", "input": ["PartitionedCall/model_8/tf.math.add_32/Add"], "attr": {"T": {"type": "DT_FLOAT"}}}, {"name": "PartitionedCall/model_8/tf.math.multiply_73/Mul", "op": "Mul", "input": ["PartitionedCall/model_8/tf.math.add_32/Add", "PartitionedCall/model_8/tf.math.sigmoid_22/Sigmoid"], "attr": {"T": {"type": "DT_FLOAT"}}}, {"name": "PartitionedCall/model_8/tf.nn.convolution_23/convolution", "op": "Conv2D", "input": ["PartitionedCall/model_8/tf.math.multiply_73/Mul", "1126"], "device": "/device:CPU:0", "attr": {"padding": {"s": "U0FNRQ=="}, "data_format": {"s": "TkhXQw=="}, "use_cudnn_on_gpu": {"b": true}, "strides": {"list": {"i": ["1", "1", "1", "1"]}}, "T": {"type": "DT_FLOAT"}, "explicit_paddings": {"list": {}}, "dilations": {"list": {"i": ["1", "1", "1", "1"]}}}}, {"name": "PartitionedCall/model_8/tf.math.add_33/Add", "op": "AddV2", "input": ["PartitionedCall/model_8/tf.nn.convolution_23/convolution", "1128"], "attr": {"T": {"type": "DT_FLOAT"}}}, {"name": "PartitionedCall/model_8/tf.math.sigmoid_23/Sigmoid", "op": "Sigmoid", "input": ["PartitionedCall/model_8/tf.math.add_33/Add"], "attr": {"T": {"type": "DT_FLOAT"}}}, {"name": "PartitionedCall/model_8/tf.math.multiply_76/Mul", "op": "Mul", "input": ["PartitionedCall/model_8/tf.math.add_33/Add", "PartitionedCall/model_8/tf.math.sigmoid_23/Sigmoid"], "attr": {"T": {"type": "DT_FLOAT"}}}, {"name": "PartitionedCall/model_8/tf.math.add_35/Add", "op": "AddV2", "input": ["PartitionedCall/model_8/tf.strided_slice_7/StridedSlice", "PartitionedCall/model_8/tf.math.multiply_76/Mul"], "attr": {"T": {"type": "DT_FLOAT"}}}, {"name": "PartitionedCall/model_8/tf.concat_3/concat", "op": "ConcatV2", "input": ["PartitionedCall/model_8/tf.strided_slice_6/StridedSlice", "PartitionedCall/model_8/tf.strided_slice_7/StridedSlice", "PartitionedCall/model_8/tf.math.add_35/Add", "PartitionedCall/model_8/tf.concat_3/concat/axis"], "attr": {"N": {"i": "3"}, "Tidx": {"type": "DT_INT32"}, "T": {"type": "DT_FLOAT"}}}, {"name": "PartitionedCall/model_8/tf.nn.convolution_24/convolution", "op": "Conv2D", "input": ["PartitionedCall/model_8/tf.concat_3/concat", "1134"], "device": "/device:CPU:0", "attr": {"padding": {"s": "U0FNRQ=="}, "data_format": {"s": "TkhXQw=="}, "use_cudnn_on_gpu": {"b": true}, "strides": {"list": {"i": ["1", "1", "1", "1"]}}, "T": {"type": "DT_FLOAT"}, "explicit_paddings": {"list": {}}, "dilations": {"list": {"i": ["1", "1", "1", "1"]}}}}, {"name": "PartitionedCall/model_8/tf.math.add_36/Add", "op": "AddV2", "input": ["PartitionedCall/model_8/tf.nn.convolution_24/convolution", "1136"], "attr": {"T": {"type": "DT_FLOAT"}}}, {"name": "PartitionedCall/model_8/tf.math.sigmoid_24/Sigmoid", "op": "Sigmoid", "input": ["PartitionedCall/model_8/tf.math.add_36/Add"], "attr": {"T": {"type": "DT_FLOAT"}}}, {"name": "PartitionedCall/model_8/tf.math.multiply_80/Mul", "op": "Mul", "input": ["PartitionedCall/model_8/tf.math.add_36/Add", "PartitionedCall/model_8/tf.math.sigmoid_24/Sigmoid"], "attr": {"T": {"type": "DT_FLOAT"}}}, {"name": "PartitionedCall/model_8/tf.nn.convolution_25/convolution", "op": "Conv2D", "input": ["PartitionedCall/model_8/tf.math.multiply_80/Mul", "1138"], "device": "/device:CPU:0", "attr": {"padding": {"s": "U0FNRQ=="}, "data_format": {"s": "TkhXQw=="}, "use_cudnn_on_gpu": {"b": true}, "strides": {"list": {"i": ["1", "1", "1", "1"]}}, "T": {"type": "DT_FLOAT"}, "explicit_paddings": {"list": {}}, "dilations": {"list": {"i": ["1", "1", "1", "1"]}}}}, {"name": "PartitionedCall/model_8/tf.math.add_37/Add", "op": "AddV2", "input": ["PartitionedCall/model_8/tf.nn.convolution_25/convolution", "1140"], "attr": {"T": {"type": "DT_FLOAT"}}}, {"name": "PartitionedCall/model_8/tf.math.sigmoid_25/Sigmoid", "op": "Sigmoid", "input": ["PartitionedCall/model_8/tf.math.add_37/Add"], "attr": {"T": {"type": "DT_FLOAT"}}}, {"name": "PartitionedCall/model_8/tf.math.multiply_83/Mul", "op": "Mul", "input": ["PartitionedCall/model_8/tf.math.add_37/Add", "PartitionedCall/model_8/tf.math.sigmoid_25/Sigmoid"], "attr": {"T": {"type": "DT_FLOAT"}}}, {"name": "PartitionedCall/model_8/tf.compat.v1.nn.pool/max_pool", "op": "MaxPool", "input": ["PartitionedCall/model_8/tf.math.multiply_83/Mul"], "attr": {"ksize": {"list": {"i": ["1", "5", "5", "1"]}}, "data_format": {"s": "TkhXQw=="}, "T": {"type": "DT_FLOAT"}, "explicit_paddings": {"list": {}}, "padding": {"s": "U0FNRQ=="}, "strides": {"list": {"i": ["1", "1", "1", "1"]}}}}, {"name": "PartitionedCall/model_8/tf.compat.v1.nn.pool_1/max_pool", "op": "MaxPool", "input": ["PartitionedCall/model_8/tf.compat.v1.nn.pool/max_pool"], "attr": {"ksize": {"list": {"i": ["1", "5", "5", "1"]}}, "data_format": {"s": "TkhXQw=="}, "T": {"type": "DT_FLOAT"}, "explicit_paddings": {"list": {}}, "padding": {"s": "U0FNRQ=="}, "strides": {"list": {"i": ["1", "1", "1", "1"]}}}}, {"name": "PartitionedCall/model_8/tf.compat.v1.nn.pool_2/max_pool", "op": "MaxPool", "input": ["PartitionedCall/model_8/tf.compat.v1.nn.pool_1/max_pool"], "attr": {"ksize": {"list": {"i": ["1", "5", "5", "1"]}}, "data_format": {"s": "TkhXQw=="}, "T": {"type": "DT_FLOAT"}, "explicit_paddings": {"list": {}}, "padding": {"s": "U0FNRQ=="}, "strides": {"list": {"i": ["1", "1", "1", "1"]}}}}, {"name": "PartitionedCall/model_8/tf.concat_4/concat", "op": "ConcatV2", "input": ["PartitionedCall/model_8/tf.math.multiply_83/Mul", "PartitionedCall/model_8/tf.compat.v1.nn.pool/max_pool", "PartitionedCall/model_8/tf.compat.v1.nn.pool_1/max_pool", "PartitionedCall/model_8/tf.compat.v1.nn.pool_2/max_pool", "PartitionedCall/model_8/tf.concat_4/concat/axis"], "attr": {"N": {"i": "4"}, "T": {"type": "DT_FLOAT"}, "Tidx": {"type": "DT_INT32"}}}, {"name": "PartitionedCall/model_8/tf.nn.convolution_26/convolution", "op": "Conv2D", "input": ["PartitionedCall/model_8/tf.concat_4/concat", "1142"], "device": "/device:CPU:0", "attr": {"padding": {"s": "U0FNRQ=="}, "data_format": {"s": "TkhXQw=="}, "use_cudnn_on_gpu": {"b": true}, "strides": {"list": {"i": ["1", "1", "1", "1"]}}, "T": {"type": "DT_FLOAT"}, "explicit_paddings": {"list": {}}, "dilations": {"list": {"i": ["1", "1", "1", "1"]}}}}, {"name": "PartitionedCall/model_8/tf.math.add_38/Add", "op": "AddV2", "input": ["PartitionedCall/model_8/tf.nn.convolution_26/convolution", "1144"], "attr": {"T": {"type": "DT_FLOAT"}}}, {"name": "PartitionedCall/model_8/tf.math.sigmoid_26/Sigmoid", "op": "Sigmoid", "input": ["PartitionedCall/model_8/tf.math.add_38/Add"], "attr": {"T": {"type": "DT_FLOAT"}}}, {"name": "PartitionedCall/model_8/tf.math.multiply_86/Mul", "op": "Mul", "input": ["PartitionedCall/model_8/tf.math.add_38/Add", "PartitionedCall/model_8/tf.math.sigmoid_26/Sigmoid"], "attr": {"T": {"type": "DT_FLOAT"}}}, {"name": "PartitionedCall/model_8/lambda//model.10/Resize", "op": "ResizeNearestNeighbor", "input": ["PartitionedCall/model_8/tf.math.multiply_86/Mul", "PartitionedCall/model_8/lambda//model.10/Resize/size"], "attr": {"T": {"type": "DT_FLOAT"}, "align_corners": {"b": false}, "half_pixel_centers": {"b": false}}}, {"name": "PartitionedCall/model_8/tf.concat_5/concat", "op": "ConcatV2", "input": ["PartitionedCall/model_8/lambda//model.10/Resize", "PartitionedCall/model_8/tf.math.multiply_64/Mul", "PartitionedCall/model_8/tf.concat_5/concat/axis"], "attr": {"N": {"i": "2"}, "Tidx": {"type": "DT_INT32"}, "T": {"type": "DT_FLOAT"}}}, {"name": "PartitionedCall/model_8/tf.nn.convolution_27/convolution", "op": "Conv2D", "input": ["PartitionedCall/model_8/tf.concat_5/concat", "1146"], "device": "/device:CPU:0", "attr": {"padding": {"s": "U0FNRQ=="}, "data_format": {"s": "TkhXQw=="}, "use_cudnn_on_gpu": {"b": true}, "strides": {"list": {"i": ["1", "1", "1", "1"]}}, "T": {"type": "DT_FLOAT"}, "explicit_paddings": {"list": {}}, "dilations": {"list": {"i": ["1", "1", "1", "1"]}}}}, {"name": "PartitionedCall/model_8/tf.math.add_39/Add", "op": "AddV2", "input": ["PartitionedCall/model_8/tf.nn.convolution_27/convolution", "1148"], "attr": {"T": {"type": "DT_FLOAT"}}}, {"name": "PartitionedCall/model_8/tf.math.sigmoid_27/Sigmoid", "op": "Sigmoid", "input": ["PartitionedCall/model_8/tf.math.add_39/Add"], "attr": {"T": {"type": "DT_FLOAT"}}}, {"name": "PartitionedCall/model_8/tf.math.multiply_89/Mul", "op": "Mul", "input": ["PartitionedCall/model_8/tf.math.add_39/Add", "PartitionedCall/model_8/tf.math.sigmoid_27/Sigmoid"], "attr": {"T": {"type": "DT_FLOAT"}}}, {"name": "PartitionedCall/model_8/tf.strided_slice_8/StridedSlice", "op": "StridedSlice", "input": ["PartitionedCall/model_8/tf.math.multiply_89/Mul", "1162", "1164", "PartitionedCall/model_8/tf.strided_slice_8/ones_like"], "attr": {"shrink_axis_mask": {"i": "0"}, "new_axis_mask": {"i": "0"}, "Index": {"type": "DT_INT64"}, "begin_mask": {"i": "15"}, "T": {"type": "DT_FLOAT"}, "end_mask": {"i": "7"}, "ellipsis_mask": {"i": "0"}}}, {"name": "PartitionedCall/model_8/tf.strided_slice_9/StridedSlice", "op": "StridedSlice", "input": ["PartitionedCall/model_8/tf.math.multiply_89/Mul", "1150", "1152", "PartitionedCall/model_8/tf.strided_slice_9/ones_like"], "attr": {"shrink_axis_mask": {"i": "0"}, "Index": {"type": "DT_INT64"}, "new_axis_mask": {"i": "0"}, "begin_mask": {"i": "7"}, "T": {"type": "DT_FLOAT"}, "end_mask": {"i": "7"}, "ellipsis_mask": {"i": "0"}}}, {"name": "PartitionedCall/model_8/tf.nn.convolution_28/convolution", "op": "Conv2D", "input": ["PartitionedCall/model_8/tf.strided_slice_9/StridedSlice", "1154"], "device": "/device:CPU:0", "attr": {"padding": {"s": "U0FNRQ=="}, "data_format": {"s": "TkhXQw=="}, "strides": {"list": {"i": ["1", "1", "1", "1"]}}, "use_cudnn_on_gpu": {"b": true}, "T": {"type": "DT_FLOAT"}, "explicit_paddings": {"list": {}}, "dilations": {"list": {"i": ["1", "1", "1", "1"]}}}}, {"name": "PartitionedCall/model_8/tf.math.add_40/Add", "op": "AddV2", "input": ["PartitionedCall/model_8/tf.nn.convolution_28/convolution", "1156"], "attr": {"T": {"type": "DT_FLOAT"}}}, {"name": "PartitionedCall/model_8/tf.math.sigmoid_28/Sigmoid", "op": "Sigmoid", "input": ["PartitionedCall/model_8/tf.math.add_40/Add"], "attr": {"T": {"type": "DT_FLOAT"}}}, {"name": "PartitionedCall/model_8/tf.math.multiply_92/Mul", "op": "Mul", "input": ["PartitionedCall/model_8/tf.math.add_40/Add", "PartitionedCall/model_8/tf.math.sigmoid_28/Sigmoid"], "attr": {"T": {"type": "DT_FLOAT"}}}, {"name": "PartitionedCall/model_8/tf.nn.convolution_29/convolution", "op": "Conv2D", "input": ["PartitionedCall/model_8/tf.math.multiply_92/Mul", "1158"], "device": "/device:CPU:0", "attr": {"padding": {"s": "U0FNRQ=="}, "data_format": {"s": "TkhXQw=="}, "strides": {"list": {"i": ["1", "1", "1", "1"]}}, "use_cudnn_on_gpu": {"b": true}, "T": {"type": "DT_FLOAT"}, "explicit_paddings": {"list": {}}, "dilations": {"list": {"i": ["1", "1", "1", "1"]}}}}, {"name": "PartitionedCall/model_8/tf.math.add_41/Add", "op": "AddV2", "input": ["PartitionedCall/model_8/tf.nn.convolution_29/convolution", "1160"], "attr": {"T": {"type": "DT_FLOAT"}}}, {"name": "PartitionedCall/model_8/tf.math.sigmoid_29/Sigmoid", "op": "Sigmoid", "input": ["PartitionedCall/model_8/tf.math.add_41/Add"], "attr": {"T": {"type": "DT_FLOAT"}}}, {"name": "PartitionedCall/model_8/tf.math.multiply_95/Mul", "op": "Mul", "input": ["PartitionedCall/model_8/tf.math.add_41/Add", "PartitionedCall/model_8/tf.math.sigmoid_29/Sigmoid"], "attr": {"T": {"type": "DT_FLOAT"}}}, {"name": "PartitionedCall/model_8/tf.concat_6/concat", "op": "ConcatV2", "input": ["PartitionedCall/model_8/tf.strided_slice_8/StridedSlice", "PartitionedCall/model_8/tf.strided_slice_9/StridedSlice", "PartitionedCall/model_8/tf.math.multiply_95/Mul", "PartitionedCall/model_8/tf.concat_6/concat/axis"], "attr": {"N": {"i": "3"}, "Tidx": {"type": "DT_INT32"}, "T": {"type": "DT_FLOAT"}}}, {"name": "PartitionedCall/model_8/tf.nn.convolution_30/convolution", "op": "Conv2D", "input": ["PartitionedCall/model_8/tf.concat_6/concat", "1166"], "device": "/device:CPU:0", "attr": {"padding": {"s": "U0FNRQ=="}, "data_format": {"s": "TkhXQw=="}, "use_cudnn_on_gpu": {"b": true}, "strides": {"list": {"i": ["1", "1", "1", "1"]}}, "T": {"type": "DT_FLOAT"}, "explicit_paddings": {"list": {}}, "dilations": {"list": {"i": ["1", "1", "1", "1"]}}}}, {"name": "PartitionedCall/model_8/tf.math.add_42/Add", "op": "AddV2", "input": ["PartitionedCall/model_8/tf.nn.convolution_30/convolution", "1168"], "attr": {"T": {"type": "DT_FLOAT"}}}, {"name": "PartitionedCall/model_8/tf.math.sigmoid_30/Sigmoid", "op": "Sigmoid", "input": ["PartitionedCall/model_8/tf.math.add_42/Add"], "attr": {"T": {"type": "DT_FLOAT"}}}, {"name": "PartitionedCall/model_8/tf.math.multiply_98/Mul", "op": "Mul", "input": ["PartitionedCall/model_8/tf.math.add_42/Add", "PartitionedCall/model_8/tf.math.sigmoid_30/Sigmoid"], "attr": {"T": {"type": "DT_FLOAT"}}}, {"name": "PartitionedCall/model_8/lambda_1//model.13/Resize", "op": "ResizeNearestNeighbor", "input": ["PartitionedCall/model_8/tf.math.multiply_98/Mul", "PartitionedCall/model_8/lambda_1//model.13/Resize/size"], "attr": {"T": {"type": "DT_FLOAT"}, "align_corners": {"b": false}, "half_pixel_centers": {"b": false}}}, {"name": "PartitionedCall/model_8/tf.concat_7/concat", "op": "ConcatV2", "input": ["PartitionedCall/model_8/lambda_1//model.13/Resize", "PartitionedCall/model_8/tf.math.multiply_41/Mul", "PartitionedCall/model_8/tf.concat_7/concat/axis"], "attr": {"N": {"i": "2"}, "T": {"type": "DT_FLOAT"}, "Tidx": {"type": "DT_INT32"}}}, {"name": "PartitionedCall/model_8/tf.nn.convolution_31/convolution", "op": "Conv2D", "input": ["PartitionedCall/model_8/tf.concat_7/concat", "1170"], "device": "/device:CPU:0", "attr": {"padding": {"s": "U0FNRQ=="}, "data_format": {"s": "TkhXQw=="}, "use_cudnn_on_gpu": {"b": true}, "strides": {"list": {"i": ["1", "1", "1", "1"]}}, "T": {"type": "DT_FLOAT"}, "explicit_paddings": {"list": {}}, "dilations": {"list": {"i": ["1", "1", "1", "1"]}}}}, {"name": "PartitionedCall/model_8/tf.math.add_43/Add", "op": "AddV2", "input": ["PartitionedCall/model_8/tf.nn.convolution_31/convolution", "1172"], "attr": {"T": {"type": "DT_FLOAT"}}}, {"name": "PartitionedCall/model_8/tf.math.sigmoid_31/Sigmoid", "op": "Sigmoid", "input": ["PartitionedCall/model_8/tf.math.add_43/Add"], "attr": {"T": {"type": "DT_FLOAT"}}}, {"name": "PartitionedCall/model_8/tf.math.multiply_101/Mul", "op": "Mul", "input": ["PartitionedCall/model_8/tf.math.add_43/Add", "PartitionedCall/model_8/tf.math.sigmoid_31/Sigmoid"], "attr": {"T": {"type": "DT_FLOAT"}}}, {"name": "PartitionedCall/model_8/tf.strided_slice_10/StridedSlice", "op": "StridedSlice", "input": ["PartitionedCall/model_8/tf.math.multiply_101/Mul", "1186", "1188", "PartitionedCall/model_8/tf.strided_slice_10/ones_like"], "attr": {"shrink_axis_mask": {"i": "0"}, "new_axis_mask": {"i": "0"}, "Index": {"type": "DT_INT64"}, "begin_mask": {"i": "15"}, "T": {"type": "DT_FLOAT"}, "end_mask": {"i": "7"}, "ellipsis_mask": {"i": "0"}}}, {"name": "PartitionedCall/model_8/tf.strided_slice_11/StridedSlice", "op": "StridedSlice", "input": ["PartitionedCall/model_8/tf.math.multiply_101/Mul", "1174", "1176", "PartitionedCall/model_8/tf.strided_slice_11/ones_like"], "attr": {"shrink_axis_mask": {"i": "0"}, "Index": {"type": "DT_INT64"}, "new_axis_mask": {"i": "0"}, "begin_mask": {"i": "7"}, "end_mask": {"i": "7"}, "T": {"type": "DT_FLOAT"}, "ellipsis_mask": {"i": "0"}}}, {"name": "PartitionedCall/model_8/tf.nn.convolution_32/convolution", "op": "Conv2D", "input": ["PartitionedCall/model_8/tf.strided_slice_11/StridedSlice", "1178"], "device": "/device:CPU:0", "attr": {"padding": {"s": "U0FNRQ=="}, "data_format": {"s": "TkhXQw=="}, "use_cudnn_on_gpu": {"b": true}, "strides": {"list": {"i": ["1", "1", "1", "1"]}}, "T": {"type": "DT_FLOAT"}, "explicit_paddings": {"list": {}}, "dilations": {"list": {"i": ["1", "1", "1", "1"]}}}}, {"name": "PartitionedCall/model_8/tf.math.add_44/Add", "op": "AddV2", "input": ["PartitionedCall/model_8/tf.nn.convolution_32/convolution", "1180"], "attr": {"T": {"type": "DT_FLOAT"}}}, {"name": "PartitionedCall/model_8/tf.math.sigmoid_32/Sigmoid", "op": "Sigmoid", "input": ["PartitionedCall/model_8/tf.math.add_44/Add"], "attr": {"T": {"type": "DT_FLOAT"}}}, {"name": "PartitionedCall/model_8/tf.math.multiply_104/Mul", "op": "Mul", "input": ["PartitionedCall/model_8/tf.math.add_44/Add", "PartitionedCall/model_8/tf.math.sigmoid_32/Sigmoid"], "attr": {"T": {"type": "DT_FLOAT"}}}, {"name": "PartitionedCall/model_8/tf.nn.convolution_33/convolution", "op": "Conv2D", "input": ["PartitionedCall/model_8/tf.math.multiply_104/Mul", "1182"], "device": "/device:CPU:0", "attr": {"padding": {"s": "U0FNRQ=="}, "data_format": {"s": "TkhXQw=="}, "strides": {"list": {"i": ["1", "1", "1", "1"]}}, "use_cudnn_on_gpu": {"b": true}, "T": {"type": "DT_FLOAT"}, "explicit_paddings": {"list": {}}, "dilations": {"list": {"i": ["1", "1", "1", "1"]}}}}, {"name": "PartitionedCall/model_8/tf.math.add_45/Add", "op": "AddV2", "input": ["PartitionedCall/model_8/tf.nn.convolution_33/convolution", "1184"], "attr": {"T": {"type": "DT_FLOAT"}}}, {"name": "PartitionedCall/model_8/tf.math.sigmoid_33/Sigmoid", "op": "Sigmoid", "input": ["PartitionedCall/model_8/tf.math.add_45/Add"], "attr": {"T": {"type": "DT_FLOAT"}}}, {"name": "PartitionedCall/model_8/tf.math.multiply_107/Mul", "op": "Mul", "input": ["PartitionedCall/model_8/tf.math.add_45/Add", "PartitionedCall/model_8/tf.math.sigmoid_33/Sigmoid"], "attr": {"T": {"type": "DT_FLOAT"}}}, {"name": "PartitionedCall/model_8/tf.concat_8/concat", "op": "ConcatV2", "input": ["PartitionedCall/model_8/tf.strided_slice_10/StridedSlice", "PartitionedCall/model_8/tf.strided_slice_11/StridedSlice", "PartitionedCall/model_8/tf.math.multiply_107/Mul", "PartitionedCall/model_8/tf.concat_8/concat/axis"], "attr": {"N": {"i": "3"}, "T": {"type": "DT_FLOAT"}, "Tidx": {"type": "DT_INT32"}}}, {"name": "PartitionedCall/model_8/tf.nn.convolution_34/convolution", "op": "Conv2D", "input": ["PartitionedCall/model_8/tf.concat_8/concat", "1190"], "device": "/device:CPU:0", "attr": {"padding": {"s": "U0FNRQ=="}, "data_format": {"s": "TkhXQw=="}, "strides": {"list": {"i": ["1", "1", "1", "1"]}}, "use_cudnn_on_gpu": {"b": true}, "T": {"type": "DT_FLOAT"}, "explicit_paddings": {"list": {}}, "dilations": {"list": {"i": ["1", "1", "1", "1"]}}}}, {"name": "PartitionedCall/model_8/tf.math.add_46/Add", "op": "AddV2", "input": ["PartitionedCall/model_8/tf.nn.convolution_34/convolution", "1192"], "attr": {"T": {"type": "DT_FLOAT"}}}, {"name": "PartitionedCall/model_8/tf.math.sigmoid_34/Sigmoid", "op": "Sigmoid", "input": ["PartitionedCall/model_8/tf.math.add_46/Add"], "attr": {"T": {"type": "DT_FLOAT"}}}, {"name": "PartitionedCall/model_8/tf.math.multiply_110/Mul", "op": "Mul", "input": ["PartitionedCall/model_8/tf.math.add_46/Add", "PartitionedCall/model_8/tf.math.sigmoid_34/Sigmoid"], "attr": {"T": {"type": "DT_FLOAT"}}}, {"name": "PartitionedCall/model_8/tf.nn.convolution_36/convolution", "op": "Conv2D", "input": ["PartitionedCall/model_8/tf.math.multiply_110/Mul", "1266"], "device": "/device:CPU:0", "attr": {"padding": {"s": "U0FNRQ=="}, "data_format": {"s": "TkhXQw=="}, "use_cudnn_on_gpu": {"b": true}, "strides": {"list": {"i": ["1", "1", "1", "1"]}}, "T": {"type": "DT_FLOAT"}, "explicit_paddings": {"list": {}}, "dilations": {"list": {"i": ["1", "1", "1", "1"]}}}}, {"name": "PartitionedCall/model_8/tf.nn.convolution_37/convolution", "op": "Conv2D", "input": ["PartitionedCall/model_8/tf.math.multiply_110/Mul", "1252"], "device": "/device:CPU:0", "attr": {"padding": {"s": "U0FNRQ=="}, "data_format": {"s": "TkhXQw=="}, "use_cudnn_on_gpu": {"b": true}, "strides": {"list": {"i": ["1", "1", "1", "1"]}}, "T": {"type": "DT_FLOAT"}, "explicit_paddings": {"list": {}}, "dilations": {"list": {"i": ["1", "1", "1", "1"]}}}}, {"name": "PartitionedCall/model_8/tf.compat.v1.pad_5/Pad", "op": "Pad", "input": ["PartitionedCall/model_8/tf.math.multiply_110/Mul", "1194"], "attr": {"Tpaddings": {"type": "DT_INT32"}, "T": {"type": "DT_FLOAT"}}}, {"name": "PartitionedCall/model_8/tf.math.add_48/Add", "op": "AddV2", "input": ["PartitionedCall/model_8/tf.nn.convolution_36/convolution", "1276"], "attr": {"T": {"type": "DT_FLOAT"}}}, {"name": "PartitionedCall/model_8/tf.math.add_49/Add", "op": "AddV2", "input": ["PartitionedCall/model_8/tf.nn.convolution_37/convolution", "1256"], "attr": {"T": {"type": "DT_FLOAT"}}}, {"name": "PartitionedCall/model_8/tf.nn.convolution_35/convolution", "op": "Conv2D", "input": ["PartitionedCall/model_8/tf.compat.v1.pad_5/Pad", "1196"], "device": "/device:CPU:0", "attr": {"padding": {"s": "VkFMSUQ="}, "data_format": {"s": "TkhXQw=="}, "strides": {"list": {"i": ["1", "2", "2", "1"]}}, "use_cudnn_on_gpu": {"b": true}, "T": {"type": "DT_FLOAT"}, "explicit_paddings": {"list": {}}, "dilations": {"list": {"i": ["1", "1", "1", "1"]}}}}, {"name": "PartitionedCall/model_8/tf.math.sigmoid_36/Sigmoid", "op": "Sigmoid", "input": ["PartitionedCall/model_8/tf.math.add_48/Add"], "attr": {"T": {"type": "DT_FLOAT"}}}, {"name": "PartitionedCall/model_8/tf.math.sigmoid_37/Sigmoid", "op": "Sigmoid", "input": ["PartitionedCall/model_8/tf.math.add_49/Add"], "attr": {"T": {"type": "DT_FLOAT"}}}, {"name": "PartitionedCall/model_8/tf.math.add_47/Add", "op": "AddV2", "input": ["PartitionedCall/model_8/tf.nn.convolution_35/convolution", "1198"], "attr": {"T": {"type": "DT_FLOAT"}}}, {"name": "PartitionedCall/model_8/tf.math.multiply_116/Mul", "op": "Mul", "input": ["PartitionedCall/model_8/tf.math.add_48/Add", "PartitionedCall/model_8/tf.math.sigmoid_36/Sigmoid"], "attr": {"T": {"type": "DT_FLOAT"}}}, {"name": "PartitionedCall/model_8/tf.math.multiply_119/Mul", "op": "Mul", "input": ["PartitionedCall/model_8/tf.math.add_49/Add", "PartitionedCall/model_8/tf.math.sigmoid_37/Sigmoid"], "attr": {"T": {"type": "DT_FLOAT"}}}, {"name": "PartitionedCall/model_8/tf.math.sigmoid_35/Sigmoid", "op": "Sigmoid", "input": ["PartitionedCall/model_8/tf.math.add_47/Add"], "attr": {"T": {"type": "DT_FLOAT"}}}, {"name": "PartitionedCall/model_8/tf.nn.convolution_38/convolution", "op": "Conv2D", "input": ["PartitionedCall/model_8/tf.math.multiply_116/Mul", "1290"], "device": "/device:CPU:0", "attr": {"padding": {"s": "U0FNRQ=="}, "data_format": {"s": "TkhXQw=="}, "use_cudnn_on_gpu": {"b": true}, "strides": {"list": {"i": ["1", "1", "1", "1"]}}, "T": {"type": "DT_FLOAT"}, "explicit_paddings": {"list": {}}, "dilations": {"list": {"i": ["1", "1", "1", "1"]}}}}, {"name": "PartitionedCall/model_8/tf.nn.convolution_41/convolution", "op": "Conv2D", "input": ["PartitionedCall/model_8/tf.math.multiply_119/Mul", "1278"], "device": "/device:CPU:0", "attr": {"padding": {"s": "U0FNRQ=="}, "data_format": {"s": "TkhXQw=="}, "use_cudnn_on_gpu": {"b": true}, "strides": {"list": {"i": ["1", "1", "1", "1"]}}, "T": {"type": "DT_FLOAT"}, "explicit_paddings": {"list": {}}, "dilations": {"list": {"i": ["1", "1", "1", "1"]}}}}, {"name": "PartitionedCall/model_8/tf.math.multiply_113/Mul", "op": "Mul", "input": ["PartitionedCall/model_8/tf.math.add_47/Add", "PartitionedCall/model_8/tf.math.sigmoid_35/Sigmoid"], "attr": {"T": {"type": "DT_FLOAT"}}}, {"name": "PartitionedCall/model_8/tf.math.add_50/Add", "op": "AddV2", "input": ["PartitionedCall/model_8/tf.nn.convolution_38/convolution", "1300"], "attr": {"T": {"type": "DT_FLOAT"}}}, {"name": "PartitionedCall/model_8/tf.math.add_53/Add", "op": "AddV2", "input": ["PartitionedCall/model_8/tf.nn.convolution_41/convolution", "1280"], "attr": {"T": {"type": "DT_FLOAT"}}}, {"name": "PartitionedCall/model_8/tf.concat_9/concat", "op": "ConcatV2", "input": ["PartitionedCall/model_8/tf.math.multiply_113/Mul", "PartitionedCall/model_8/tf.math.multiply_98/Mul", "PartitionedCall/model_8/tf.concat_9/concat/axis"], "attr": {"N": {"i": "2"}, "T": {"type": "DT_FLOAT"}, "Tidx": {"type": "DT_INT32"}}}, {"name": "PartitionedCall/model_8/tf.math.sigmoid_38/Sigmoid", "op": "Sigmoid", "input": ["PartitionedCall/model_8/tf.math.add_50/Add"], "attr": {"T": {"type": "DT_FLOAT"}}}, {"name": "PartitionedCall/model_8/tf.math.sigmoid_39/Sigmoid", "op": "Sigmoid", "input": ["PartitionedCall/model_8/tf.math.add_53/Add"], "attr": {"T": {"type": "DT_FLOAT"}}}, {"name": "PartitionedCall/model_8/tf.nn.convolution_42/convolution", "op": "Conv2D", "input": ["PartitionedCall/model_8/tf.concat_9/concat", "1200"], "device": "/device:CPU:0", "attr": {"padding": {"s": "U0FNRQ=="}, "data_format": {"s": "TkhXQw=="}, "strides": {"list": {"i": ["1", "1", "1", "1"]}}, "use_cudnn_on_gpu": {"b": true}, "T": {"type": "DT_FLOAT"}, "explicit_paddings": {"list": {}}, "dilations": {"list": {"i": ["1", "1", "1", "1"]}}}}, {"name": "PartitionedCall/model_8/tf.math.multiply_122/Mul", "op": "Mul", "input": ["PartitionedCall/model_8/tf.math.add_50/Add", "PartitionedCall/model_8/tf.math.sigmoid_38/Sigmoid"], "attr": {"T": {"type": "DT_FLOAT"}}}, {"name": "PartitionedCall/model_8/tf.math.multiply_125/Mul", "op": "Mul", "input": ["PartitionedCall/model_8/tf.math.add_53/Add", "PartitionedCall/model_8/tf.math.sigmoid_39/Sigmoid"], "attr": {"T": {"type": "DT_FLOAT"}}}, {"name": "PartitionedCall/model_8/tf.math.add_54/Add", "op": "AddV2", "input": ["PartitionedCall/model_8/tf.nn.convolution_42/convolution", "1202"], "attr": {"T": {"type": "DT_FLOAT"}}}, {"name": "PartitionedCall/model_8/tf.nn.convolution_43/convolution", "op": "Conv2D", "input": ["PartitionedCall/model_8/tf.math.multiply_122/Mul", "1312"], "device": "/device:CPU:0", "attr": {"padding": {"s": "U0FNRQ=="}, "data_format": {"s": "TkhXQw=="}, "strides": {"list": {"i": ["1", "1", "1", "1"]}}, "use_cudnn_on_gpu": {"b": true}, "T": {"type": "DT_FLOAT"}, "explicit_paddings": {"list": {}}, "dilations": {"list": {"i": ["1", "1", "1", "1"]}}}}, {"name": "PartitionedCall/model_8/tf.nn.convolution_46/convolution", "op": "Conv2D", "input": ["PartitionedCall/model_8/tf.math.multiply_125/Mul", "1310"], "device": "/device:CPU:0", "attr": {"padding": {"s": "U0FNRQ=="}, "data_format": {"s": "TkhXQw=="}, "use_cudnn_on_gpu": {"b": true}, "strides": {"list": {"i": ["1", "1", "1", "1"]}}, "T": {"type": "DT_FLOAT"}, "explicit_paddings": {"list": {}}, "dilations": {"list": {"i": ["1", "1", "1", "1"]}}}}, {"name": "PartitionedCall/model_8/tf.math.sigmoid_40/Sigmoid", "op": "Sigmoid", "input": ["PartitionedCall/model_8/tf.math.add_54/Add"], "attr": {"T": {"type": "DT_FLOAT"}}}, {"name": "PartitionedCall/model_8/tf.math.add_55/Add", "op": "AddV2", "input": ["PartitionedCall/model_8/tf.nn.convolution_43/convolution", "1322"], "attr": {"T": {"type": "DT_FLOAT"}}}, {"name": "PartitionedCall/model_8/tf.math.add_58/Add", "op": "AddV2", "input": ["PartitionedCall/model_8/tf.nn.convolution_46/convolution", "1324"], "attr": {"T": {"type": "DT_FLOAT"}}}, {"name": "PartitionedCall/model_8/tf.math.multiply_128/Mul", "op": "Mul", "input": ["PartitionedCall/model_8/tf.math.add_54/Add", "PartitionedCall/model_8/tf.math.sigmoid_40/Sigmoid"], "attr": {"T": {"type": "DT_FLOAT"}}}, {"name": "PartitionedCall/model_8/tf.concat_10/concat", "op": "ConcatV2", "input": ["PartitionedCall/model_8/tf.math.add_55/Add", "PartitionedCall/model_8/tf.math.add_58/Add", "PartitionedCall/model_8/tf.concat_10/concat/axis"], "attr": {"N": {"i": "2"}, "Tidx": {"type": "DT_INT32"}, "T": {"type": "DT_FLOAT"}}}, {"name": "PartitionedCall/model_8/tf.strided_slice_12/StridedSlice", "op": "StridedSlice", "input": ["PartitionedCall/model_8/tf.math.multiply_128/Mul", "1216", "1218", "PartitionedCall/model_8/tf.strided_slice_12/ones_like"], "attr": {"shrink_axis_mask": {"i": "0"}, "new_axis_mask": {"i": "0"}, "Index": {"type": "DT_INT64"}, "begin_mask": {"i": "15"}, "end_mask": {"i": "7"}, "T": {"type": "DT_FLOAT"}, "ellipsis_mask": {"i": "0"}}}, {"name": "PartitionedCall/model_8/tf.strided_slice_13/StridedSlice", "op": "StridedSlice", "input": ["PartitionedCall/model_8/tf.math.multiply_128/Mul", "1204", "1206", "PartitionedCall/model_8/tf.strided_slice_13/ones_like"], "attr": {"shrink_axis_mask": {"i": "0"}, "new_axis_mask": {"i": "0"}, "Index": {"type": "DT_INT64"}, "begin_mask": {"i": "7"}, "T": {"type": "DT_FLOAT"}, "end_mask": {"i": "7"}, "ellipsis_mask": {"i": "0"}}}, {"name": "PartitionedCall/model_8/tf.compat.v1.transpose_6/transpose", "op": "Transpose", "input": ["PartitionedCall/model_8/tf.concat_10/concat", "PartitionedCall/model_8/tf.compat.v1.transpose_6/transpose/perm"], "attr": {"Tperm": {"type": "DT_INT32"}, "T": {"type": "DT_FLOAT"}}}, {"name": "PartitionedCall/model_8/tf.nn.convolution_47/convolution", "op": "Conv2D", "input": ["PartitionedCall/model_8/tf.strided_slice_13/StridedSlice", "1208"], "device": "/device:CPU:0", "attr": {"padding": {"s": "U0FNRQ=="}, "data_format": {"s": "TkhXQw=="}, "use_cudnn_on_gpu": {"b": true}, "strides": {"list": {"i": ["1", "1", "1", "1"]}}, "T": {"type": "DT_FLOAT"}, "explicit_paddings": {"list": {}}, "dilations": {"list": {"i": ["1", "1", "1", "1"]}}}}, {"name": "PartitionedCall/model_8/tf.reshape/Reshape", "op": "Reshape", "input": ["PartitionedCall/model_8/tf.compat.v1.transpose_6/transpose", "PartitionedCall/model_8/tf.reshape/Reshape/shape"], "attr": {"T": {"type": "DT_FLOAT"}, "Tshape": {"type": "DT_INT32"}}}, {"name": "PartitionedCall/model_8/tf.math.add_59/Add", "op": "AddV2", "input": ["PartitionedCall/model_8/tf.nn.convolution_47/convolution", "1210"], "attr": {"T": {"type": "DT_FLOAT"}}}, {"name": "PartitionedCall/model_8/tf.math.sigmoid_41/Sigmoid", "op": "Sigmoid", "input": ["PartitionedCall/model_8/tf.math.add_59/Add"], "attr": {"T": {"type": "DT_FLOAT"}}}, {"name": "PartitionedCall/model_8/tf.math.multiply_131/Mul", "op": "Mul", "input": ["PartitionedCall/model_8/tf.math.add_59/Add", "PartitionedCall/model_8/tf.math.sigmoid_41/Sigmoid"], "attr": {"T": {"type": "DT_FLOAT"}}}, {"name": "PartitionedCall/model_8/tf.nn.convolution_48/convolution", "op": "Conv2D", "input": ["PartitionedCall/model_8/tf.math.multiply_131/Mul", "1212"], "device": "/device:CPU:0", "attr": {"padding": {"s": "U0FNRQ=="}, "data_format": {"s": "TkhXQw=="}, "strides": {"list": {"i": ["1", "1", "1", "1"]}}, "use_cudnn_on_gpu": {"b": true}, "T": {"type": "DT_FLOAT"}, "explicit_paddings": {"list": {}}, "dilations": {"list": {"i": ["1", "1", "1", "1"]}}}}, {"name": "PartitionedCall/model_8/tf.math.add_60/Add", "op": "AddV2", "input": ["PartitionedCall/model_8/tf.nn.convolution_48/convolution", "1214"], "attr": {"T": {"type": "DT_FLOAT"}}}, {"name": "PartitionedCall/model_8/tf.math.sigmoid_42/Sigmoid", "op": "Sigmoid", "input": ["PartitionedCall/model_8/tf.math.add_60/Add"], "attr": {"T": {"type": "DT_FLOAT"}}}, {"name": "PartitionedCall/model_8/tf.math.multiply_134/Mul", "op": "Mul", "input": ["PartitionedCall/model_8/tf.math.add_60/Add", "PartitionedCall/model_8/tf.math.sigmoid_42/Sigmoid"], "attr": {"T": {"type": "DT_FLOAT"}}}, {"name": "PartitionedCall/model_8/tf.concat_11/concat", "op": "ConcatV2", "input": ["PartitionedCall/model_8/tf.strided_slice_12/StridedSlice", "PartitionedCall/model_8/tf.strided_slice_13/StridedSlice", "PartitionedCall/model_8/tf.math.multiply_134/Mul", "PartitionedCall/model_8/tf.concat_11/concat/axis"], "attr": {"N": {"i": "3"}, "T": {"type": "DT_FLOAT"}, "Tidx": {"type": "DT_INT32"}}}, {"name": "PartitionedCall/model_8/tf.nn.convolution_49/convolution", "op": "Conv2D", "input": ["PartitionedCall/model_8/tf.concat_11/concat", "1220"], "device": "/device:CPU:0", "attr": {"padding": {"s": "U0FNRQ=="}, "data_format": {"s": "TkhXQw=="}, "strides": {"list": {"i": ["1", "1", "1", "1"]}}, "use_cudnn_on_gpu": {"b": true}, "T": {"type": "DT_FLOAT"}, "explicit_paddings": {"list": {}}, "dilations": {"list": {"i": ["1", "1", "1", "1"]}}}}, {"name": "PartitionedCall/model_8/tf.math.add_61/Add", "op": "AddV2", "input": ["PartitionedCall/model_8/tf.nn.convolution_49/convolution", "1222"], "attr": {"T": {"type": "DT_FLOAT"}}}, {"name": "PartitionedCall/model_8/tf.math.sigmoid_43/Sigmoid", "op": "Sigmoid", "input": ["PartitionedCall/model_8/tf.math.add_61/Add"], "attr": {"T": {"type": "DT_FLOAT"}}}, {"name": "PartitionedCall/model_8/tf.math.multiply_137/Mul", "op": "Mul", "input": ["PartitionedCall/model_8/tf.math.add_61/Add", "PartitionedCall/model_8/tf.math.sigmoid_43/Sigmoid"], "attr": {"T": {"type": "DT_FLOAT"}}}, {"name": "PartitionedCall/model_8/tf.nn.convolution_51/convolution", "op": "Conv2D", "input": ["PartitionedCall/model_8/tf.math.multiply_137/Mul", "1264"], "device": "/device:CPU:0", "attr": {"padding": {"s": "U0FNRQ=="}, "data_format": {"s": "TkhXQw=="}, "use_cudnn_on_gpu": {"b": true}, "strides": {"list": {"i": ["1", "1", "1", "1"]}}, "T": {"type": "DT_FLOAT"}, "explicit_paddings": {"list": {}}, "dilations": {"list": {"i": ["1", "1", "1", "1"]}}}}, {"name": "PartitionedCall/model_8/tf.nn.convolution_52/convolution", "op": "Conv2D", "input": ["PartitionedCall/model_8/tf.math.multiply_137/Mul", "1262"], "device": "/device:CPU:0", "attr": {"padding": {"s": "U0FNRQ=="}, "data_format": {"s": "TkhXQw=="}, "use_cudnn_on_gpu": {"b": true}, "strides": {"list": {"i": ["1", "1", "1", "1"]}}, "T": {"type": "DT_FLOAT"}, "explicit_paddings": {"list": {}}, "dilations": {"list": {"i": ["1", "1", "1", "1"]}}}}, {"name": "PartitionedCall/model_8/tf.compat.v1.pad_6/Pad", "op": "Pad", "input": ["PartitionedCall/model_8/tf.math.multiply_137/Mul", "1224"], "attr": {"Tpaddings": {"type": "DT_INT32"}, "T": {"type": "DT_FLOAT"}}}, {"name": "PartitionedCall/model_8/tf.math.add_63/Add", "op": "AddV2", "input": ["PartitionedCall/model_8/tf.nn.convolution_51/convolution", "1274"], "attr": {"T": {"type": "DT_FLOAT"}}}, {"name": "PartitionedCall/model_8/tf.math.add_64/Add", "op": "AddV2", "input": ["PartitionedCall/model_8/tf.nn.convolution_52/convolution", "1272"], "attr": {"T": {"type": "DT_FLOAT"}}}, {"name": "PartitionedCall/model_8/tf.nn.convolution_50/convolution", "op": "Conv2D", "input": ["PartitionedCall/model_8/tf.compat.v1.pad_6/Pad", "1226"], "device": "/device:CPU:0", "attr": {"padding": {"s": "VkFMSUQ="}, "data_format": {"s": "TkhXQw=="}, "strides": {"list": {"i": ["1", "2", "2", "1"]}}, "use_cudnn_on_gpu": {"b": true}, "T": {"type": "DT_FLOAT"}, "explicit_paddings": {"list": {}}, "dilations": {"list": {"i": ["1", "1", "1", "1"]}}}}, {"name": "PartitionedCall/model_8/tf.math.sigmoid_45/Sigmoid", "op": "Sigmoid", "input": ["PartitionedCall/model_8/tf.math.add_63/Add"], "attr": {"T": {"type": "DT_FLOAT"}}}, {"name": "PartitionedCall/model_8/tf.math.sigmoid_46/Sigmoid", "op": "Sigmoid", "input": ["PartitionedCall/model_8/tf.math.add_64/Add"], "attr": {"T": {"type": "DT_FLOAT"}}}, {"name": "PartitionedCall/model_8/tf.math.add_62/Add", "op": "AddV2", "input": ["PartitionedCall/model_8/tf.nn.convolution_50/convolution", "1228"], "attr": {"T": {"type": "DT_FLOAT"}}}, {"name": "PartitionedCall/model_8/tf.math.multiply_143/Mul", "op": "Mul", "input": ["PartitionedCall/model_8/tf.math.add_63/Add", "PartitionedCall/model_8/tf.math.sigmoid_45/Sigmoid"], "attr": {"T": {"type": "DT_FLOAT"}}}, {"name": "PartitionedCall/model_8/tf.math.multiply_146/Mul", "op": "Mul", "input": ["PartitionedCall/model_8/tf.math.add_64/Add", "PartitionedCall/model_8/tf.math.sigmoid_46/Sigmoid"], "attr": {"T": {"type": "DT_FLOAT"}}}, {"name": "PartitionedCall/model_8/tf.math.sigmoid_44/Sigmoid", "op": "Sigmoid", "input": ["PartitionedCall/model_8/tf.math.add_62/Add"], "attr": {"T": {"type": "DT_FLOAT"}}}, {"name": "PartitionedCall/model_8/tf.nn.convolution_53/convolution", "op": "Conv2D", "input": ["PartitionedCall/model_8/tf.math.multiply_143/Mul", "1288"], "device": "/device:CPU:0", "attr": {"padding": {"s": "U0FNRQ=="}, "data_format": {"s": "TkhXQw=="}, "strides": {"list": {"i": ["1", "1", "1", "1"]}}, "use_cudnn_on_gpu": {"b": true}, "T": {"type": "DT_FLOAT"}, "explicit_paddings": {"list": {}}, "dilations": {"list": {"i": ["1", "1", "1", "1"]}}}}, {"name": "PartitionedCall/model_8/tf.nn.convolution_54/convolution", "op": "Conv2D", "input": ["PartitionedCall/model_8/tf.math.multiply_146/Mul", "1286"], "device": "/device:CPU:0", "attr": {"padding": {"s": "U0FNRQ=="}, "data_format": {"s": "TkhXQw=="}, "strides": {"list": {"i": ["1", "1", "1", "1"]}}, "use_cudnn_on_gpu": {"b": true}, "T": {"type": "DT_FLOAT"}, "explicit_paddings": {"list": {}}, "dilations": {"list": {"i": ["1", "1", "1", "1"]}}}}, {"name": "PartitionedCall/model_8/tf.math.multiply_140/Mul", "op": "Mul", "input": ["PartitionedCall/model_8/tf.math.add_62/Add", "PartitionedCall/model_8/tf.math.sigmoid_44/Sigmoid"], "attr": {"T": {"type": "DT_FLOAT"}}}, {"name": "PartitionedCall/model_8/tf.math.add_65/Add", "op": "AddV2", "input": ["PartitionedCall/model_8/tf.nn.convolution_53/convolution", "1298"], "attr": {"T": {"type": "DT_FLOAT"}}}, {"name": "PartitionedCall/model_8/tf.math.add_66/Add", "op": "AddV2", "input": ["PartitionedCall/model_8/tf.nn.convolution_54/convolution", "1296"], "attr": {"T": {"type": "DT_FLOAT"}}}, {"name": "PartitionedCall/model_8/tf.concat_12/concat", "op": "ConcatV2", "input": ["PartitionedCall/model_8/tf.math.multiply_140/Mul", "PartitionedCall/model_8/tf.math.multiply_86/Mul", "PartitionedCall/model_8/tf.concat_12/concat/axis"], "attr": {"N": {"i": "2"}, "Tidx": {"type": "DT_INT32"}, "T": {"type": "DT_FLOAT"}}}, {"name": "PartitionedCall/model_8/tf.math.sigmoid_47/Sigmoid", "op": "Sigmoid", "input": ["PartitionedCall/model_8/tf.math.add_65/Add"], "attr": {"T": {"type": "DT_FLOAT"}}}, {"name": "PartitionedCall/model_8/tf.math.sigmoid_48/Sigmoid", "op": "Sigmoid", "input": ["PartitionedCall/model_8/tf.math.add_66/Add"], "attr": {"T": {"type": "DT_FLOAT"}}}, {"name": "PartitionedCall/model_8/tf.nn.convolution_55/convolution", "op": "Conv2D", "input": ["PartitionedCall/model_8/tf.concat_12/concat", "1230"], "device": "/device:CPU:0", "attr": {"padding": {"s": "U0FNRQ=="}, "data_format": {"s": "TkhXQw=="}, "strides": {"list": {"i": ["1", "1", "1", "1"]}}, "use_cudnn_on_gpu": {"b": true}, "T": {"type": "DT_FLOAT"}, "explicit_paddings": {"list": {}}, "dilations": {"list": {"i": ["1", "1", "1", "1"]}}}}, {"name": "PartitionedCall/model_8/tf.math.multiply_149/Mul", "op": "Mul", "input": ["PartitionedCall/model_8/tf.math.add_65/Add", "PartitionedCall/model_8/tf.math.sigmoid_47/Sigmoid"], "attr": {"T": {"type": "DT_FLOAT"}}}, {"name": "PartitionedCall/model_8/tf.math.multiply_152/Mul", "op": "Mul", "input": ["PartitionedCall/model_8/tf.math.add_66/Add", "PartitionedCall/model_8/tf.math.sigmoid_48/Sigmoid"], "attr": {"T": {"type": "DT_FLOAT"}}}, {"name": "PartitionedCall/model_8/tf.math.add_67/Add", "op": "AddV2", "input": ["PartitionedCall/model_8/tf.nn.convolution_55/convolution", "1232"], "attr": {"T": {"type": "DT_FLOAT"}}}, {"name": "PartitionedCall/model_8/tf.nn.convolution_56/convolution", "op": "Conv2D", "input": ["PartitionedCall/model_8/tf.math.multiply_149/Mul", "1308"], "device": "/device:CPU:0", "attr": {"padding": {"s": "U0FNRQ=="}, "data_format": {"s": "TkhXQw=="}, "strides": {"list": {"i": ["1", "1", "1", "1"]}}, "use_cudnn_on_gpu": {"b": true}, "T": {"type": "DT_FLOAT"}, "explicit_paddings": {"list": {}}, "dilations": {"list": {"i": ["1", "1", "1", "1"]}}}}, {"name": "PartitionedCall/model_8/tf.nn.convolution_57/convolution", "op": "Conv2D", "input": ["PartitionedCall/model_8/tf.math.multiply_152/Mul", "1306"], "device": "/device:CPU:0", "attr": {"padding": {"s": "U0FNRQ=="}, "data_format": {"s": "TkhXQw=="}, "strides": {"list": {"i": ["1", "1", "1", "1"]}}, "use_cudnn_on_gpu": {"b": true}, "T": {"type": "DT_FLOAT"}, "explicit_paddings": {"list": {}}, "dilations": {"list": {"i": ["1", "1", "1", "1"]}}}}, {"name": "PartitionedCall/model_8/tf.math.sigmoid_49/Sigmoid", "op": "Sigmoid", "input": ["PartitionedCall/model_8/tf.math.add_67/Add"], "attr": {"T": {"type": "DT_FLOAT"}}}, {"name": "PartitionedCall/model_8/tf.math.add_68/Add", "op": "AddV2", "input": ["PartitionedCall/model_8/tf.nn.convolution_56/convolution", "1318"], "attr": {"T": {"type": "DT_FLOAT"}}}, {"name": "PartitionedCall/model_8/tf.math.add_69/Add", "op": "AddV2", "input": ["PartitionedCall/model_8/tf.nn.convolution_57/convolution", "1320"], "attr": {"T": {"type": "DT_FLOAT"}}}, {"name": "PartitionedCall/model_8/tf.math.multiply_155/Mul", "op": "Mul", "input": ["PartitionedCall/model_8/tf.math.add_67/Add", "PartitionedCall/model_8/tf.math.sigmoid_49/Sigmoid"], "attr": {"T": {"type": "DT_FLOAT"}}}, {"name": "PartitionedCall/model_8/tf.concat_13/concat", "op": "ConcatV2", "input": ["PartitionedCall/model_8/tf.math.add_68/Add", "PartitionedCall/model_8/tf.math.add_69/Add", "PartitionedCall/model_8/tf.concat_13/concat/axis"], "attr": {"N": {"i": "2"}, "Tidx": {"type": "DT_INT32"}, "T": {"type": "DT_FLOAT"}}}, {"name": "PartitionedCall/model_8/tf.strided_slice_14/StridedSlice", "op": "StridedSlice", "input": ["PartitionedCall/model_8/tf.math.multiply_155/Mul", "1246", "1248", "PartitionedCall/model_8/tf.strided_slice_14/ones_like"], "attr": {"shrink_axis_mask": {"i": "0"}, "new_axis_mask": {"i": "0"}, "Index": {"type": "DT_INT64"}, "begin_mask": {"i": "15"}, "T": {"type": "DT_FLOAT"}, "end_mask": {"i": "7"}, "ellipsis_mask": {"i": "0"}}}, {"name": "PartitionedCall/model_8/tf.strided_slice_15/StridedSlice", "op": "StridedSlice", "input": ["PartitionedCall/model_8/tf.math.multiply_155/Mul", "1234", "1236", "PartitionedCall/model_8/tf.strided_slice_15/ones_like"], "attr": {"shrink_axis_mask": {"i": "0"}, "new_axis_mask": {"i": "0"}, "Index": {"type": "DT_INT64"}, "begin_mask": {"i": "7"}, "end_mask": {"i": "7"}, "T": {"type": "DT_FLOAT"}, "ellipsis_mask": {"i": "0"}}}, {"name": "PartitionedCall/model_8/tf.compat.v1.transpose_7/transpose", "op": "Transpose", "input": ["PartitionedCall/model_8/tf.concat_13/concat", "PartitionedCall/model_8/tf.compat.v1.transpose_7/transpose/perm"], "attr": {"Tperm": {"type": "DT_INT32"}, "T": {"type": "DT_FLOAT"}}}, {"name": "PartitionedCall/model_8/tf.nn.convolution_58/convolution", "op": "Conv2D", "input": ["PartitionedCall/model_8/tf.strided_slice_15/StridedSlice", "1238"], "device": "/device:CPU:0", "attr": {"padding": {"s": "U0FNRQ=="}, "data_format": {"s": "TkhXQw=="}, "strides": {"list": {"i": ["1", "1", "1", "1"]}}, "use_cudnn_on_gpu": {"b": true}, "T": {"type": "DT_FLOAT"}, "explicit_paddings": {"list": {}}, "dilations": {"list": {"i": ["1", "1", "1", "1"]}}}}, {"name": "PartitionedCall/model_8/tf.reshape_1/Reshape", "op": "Reshape", "input": ["PartitionedCall/model_8/tf.compat.v1.transpose_7/transpose", "PartitionedCall/model_8/tf.reshape_1/Reshape/shape"], "attr": {"T": {"type": "DT_FLOAT"}, "Tshape": {"type": "DT_INT32"}}}, {"name": "PartitionedCall/model_8/tf.math.add_70/Add", "op": "AddV2", "input": ["PartitionedCall/model_8/tf.nn.convolution_58/convolution", "1240"], "attr": {"T": {"type": "DT_FLOAT"}}}, {"name": "PartitionedCall/model_8/tf.math.sigmoid_50/Sigmoid", "op": "Sigmoid", "input": ["PartitionedCall/model_8/tf.math.add_70/Add"], "attr": {"T": {"type": "DT_FLOAT"}}}, {"name": "PartitionedCall/model_8/tf.math.multiply_158/Mul", "op": "Mul", "input": ["PartitionedCall/model_8/tf.math.add_70/Add", "PartitionedCall/model_8/tf.math.sigmoid_50/Sigmoid"], "attr": {"T": {"type": "DT_FLOAT"}}}, {"name": "PartitionedCall/model_8/tf.nn.convolution_59/convolution", "op": "Conv2D", "input": ["PartitionedCall/model_8/tf.math.multiply_158/Mul", "1242"], "device": "/device:CPU:0", "attr": {"padding": {"s": "U0FNRQ=="}, "data_format": {"s": "TkhXQw=="}, "strides": {"list": {"i": ["1", "1", "1", "1"]}}, "use_cudnn_on_gpu": {"b": true}, "T": {"type": "DT_FLOAT"}, "explicit_paddings": {"list": {}}, "dilations": {"list": {"i": ["1", "1", "1", "1"]}}}}, {"name": "PartitionedCall/model_8/tf.math.add_71/Add", "op": "AddV2", "input": ["PartitionedCall/model_8/tf.nn.convolution_59/convolution", "1244"], "attr": {"T": {"type": "DT_FLOAT"}}}, {"name": "PartitionedCall/model_8/tf.math.sigmoid_51/Sigmoid", "op": "Sigmoid", "input": ["PartitionedCall/model_8/tf.math.add_71/Add"], "attr": {"T": {"type": "DT_FLOAT"}}}, {"name": "PartitionedCall/model_8/tf.math.multiply_161/Mul", "op": "Mul", "input": ["PartitionedCall/model_8/tf.math.add_71/Add", "PartitionedCall/model_8/tf.math.sigmoid_51/Sigmoid"], "attr": {"T": {"type": "DT_FLOAT"}}}, {"name": "PartitionedCall/model_8/tf.concat_14/concat", "op": "ConcatV2", "input": ["PartitionedCall/model_8/tf.strided_slice_14/StridedSlice", "PartitionedCall/model_8/tf.strided_slice_15/StridedSlice", "PartitionedCall/model_8/tf.math.multiply_161/Mul", "PartitionedCall/model_8/tf.concat_14/concat/axis"], "attr": {"N": {"i": "3"}, "Tidx": {"type": "DT_INT32"}, "T": {"type": "DT_FLOAT"}}}, {"name": "PartitionedCall/model_8/tf.nn.convolution_60/convolution", "op": "Conv2D", "input": ["PartitionedCall/model_8/tf.concat_14/concat", "1250"], "device": "/device:CPU:0", "attr": {"padding": {"s": "U0FNRQ=="}, "data_format": {"s": "TkhXQw=="}, "use_cudnn_on_gpu": {"b": true}, "strides": {"list": {"i": ["1", "1", "1", "1"]}}, "T": {"type": "DT_FLOAT"}, "explicit_paddings": {"list": {}}, "dilations": {"list": {"i": ["1", "1", "1", "1"]}}}}, {"name": "PartitionedCall/model_8/tf.math.add_72/Add", "op": "AddV2", "input": ["PartitionedCall/model_8/tf.nn.convolution_60/convolution", "1254"], "attr": {"T": {"type": "DT_FLOAT"}}}, {"name": "PartitionedCall/model_8/tf.math.sigmoid_52/Sigmoid", "op": "Sigmoid", "input": ["PartitionedCall/model_8/tf.math.add_72/Add"], "attr": {"T": {"type": "DT_FLOAT"}}}, {"name": "PartitionedCall/model_8/tf.math.multiply_164/Mul", "op": "Mul", "input": ["PartitionedCall/model_8/tf.math.add_72/Add", "PartitionedCall/model_8/tf.math.sigmoid_52/Sigmoid"], "attr": {"T": {"type": "DT_FLOAT"}}}, {"name": "PartitionedCall/model_8/tf.nn.convolution_61/convolution", "op": "Conv2D", "input": ["PartitionedCall/model_8/tf.math.multiply_164/Mul", "1260"], "device": "/device:CPU:0", "attr": {"padding": {"s": "U0FNRQ=="}, "data_format": {"s": "TkhXQw=="}, "strides": {"list": {"i": ["1", "1", "1", "1"]}}, "use_cudnn_on_gpu": {"b": true}, "T": {"type": "DT_FLOAT"}, "explicit_paddings": {"list": {}}, "dilations": {"list": {"i": ["1", "1", "1", "1"]}}}}, {"name": "PartitionedCall/model_8/tf.nn.convolution_62/convolution", "op": "Conv2D", "input": ["PartitionedCall/model_8/tf.math.multiply_164/Mul", "1258"], "device": "/device:CPU:0", "attr": {"padding": {"s": "U0FNRQ=="}, "data_format": {"s": "TkhXQw=="}, "use_cudnn_on_gpu": {"b": true}, "strides": {"list": {"i": ["1", "1", "1", "1"]}}, "T": {"type": "DT_FLOAT"}, "explicit_paddings": {"list": {}}, "dilations": {"list": {"i": ["1", "1", "1", "1"]}}}}, {"name": "PartitionedCall/model_8/tf.math.add_73/Add", "op": "AddV2", "input": ["PartitionedCall/model_8/tf.nn.convolution_61/convolution", "1270"], "attr": {"T": {"type": "DT_FLOAT"}}}, {"name": "PartitionedCall/model_8/tf.math.add_74/Add", "op": "AddV2", "input": ["PartitionedCall/model_8/tf.nn.convolution_62/convolution", "1268"], "attr": {"T": {"type": "DT_FLOAT"}}}, {"name": "PartitionedCall/model_8/tf.math.sigmoid_53/Sigmoid", "op": "Sigmoid", "input": ["PartitionedCall/model_8/tf.math.add_73/Add"], "attr": {"T": {"type": "DT_FLOAT"}}}, {"name": "PartitionedCall/model_8/tf.math.sigmoid_54/Sigmoid", "op": "Sigmoid", "input": ["PartitionedCall/model_8/tf.math.add_74/Add"], "attr": {"T": {"type": "DT_FLOAT"}}}, {"name": "PartitionedCall/model_8/tf.math.multiply_167/Mul", "op": "Mul", "input": ["PartitionedCall/model_8/tf.math.add_73/Add", "PartitionedCall/model_8/tf.math.sigmoid_53/Sigmoid"], "attr": {"T": {"type": "DT_FLOAT"}}}, {"name": "PartitionedCall/model_8/tf.math.multiply_170/Mul", "op": "Mul", "input": ["PartitionedCall/model_8/tf.math.add_74/Add", "PartitionedCall/model_8/tf.math.sigmoid_54/Sigmoid"], "attr": {"T": {"type": "DT_FLOAT"}}}, {"name": "PartitionedCall/model_8/tf.nn.convolution_63/convolution", "op": "Conv2D", "input": ["PartitionedCall/model_8/tf.math.multiply_167/Mul", "1284"], "device": "/device:CPU:0", "attr": {"padding": {"s": "U0FNRQ=="}, "data_format": {"s": "TkhXQw=="}, "strides": {"list": {"i": ["1", "1", "1", "1"]}}, "use_cudnn_on_gpu": {"b": true}, "T": {"type": "DT_FLOAT"}, "explicit_paddings": {"list": {}}, "dilations": {"list": {"i": ["1", "1", "1", "1"]}}}}, {"name": "PartitionedCall/model_8/tf.nn.convolution_64/convolution", "op": "Conv2D", "input": ["PartitionedCall/model_8/tf.math.multiply_170/Mul", "1282"], "device": "/device:CPU:0", "attr": {"padding": {"s": "U0FNRQ=="}, "data_format": {"s": "TkhXQw=="}, "strides": {"list": {"i": ["1", "1", "1", "1"]}}, "use_cudnn_on_gpu": {"b": true}, "T": {"type": "DT_FLOAT"}, "explicit_paddings": {"list": {}}, "dilations": {"list": {"i": ["1", "1", "1", "1"]}}}}, {"name": "PartitionedCall/model_8/tf.math.add_75/Add", "op": "AddV2", "input": ["PartitionedCall/model_8/tf.nn.convolution_63/convolution", "1294"], "attr": {"T": {"type": "DT_FLOAT"}}}, {"name": "PartitionedCall/model_8/tf.math.add_76/Add", "op": "AddV2", "input": ["PartitionedCall/model_8/tf.nn.convolution_64/convolution", "1292"], "attr": {"T": {"type": "DT_FLOAT"}}}, {"name": "PartitionedCall/model_8/tf.math.sigmoid_55/Sigmoid", "op": "Sigmoid", "input": ["PartitionedCall/model_8/tf.math.add_75/Add"], "attr": {"T": {"type": "DT_FLOAT"}}}, {"name": "PartitionedCall/model_8/tf.math.sigmoid_56/Sigmoid", "op": "Sigmoid", "input": ["PartitionedCall/model_8/tf.math.add_76/Add"], "attr": {"T": {"type": "DT_FLOAT"}}}, {"name": "PartitionedCall/model_8/tf.math.multiply_173/Mul", "op": "Mul", "input": ["PartitionedCall/model_8/tf.math.add_75/Add", "PartitionedCall/model_8/tf.math.sigmoid_55/Sigmoid"], "attr": {"T": {"type": "DT_FLOAT"}}}, {"name": "PartitionedCall/model_8/tf.math.multiply_176/Mul", "op": "Mul", "input": ["PartitionedCall/model_8/tf.math.add_76/Add", "PartitionedCall/model_8/tf.math.sigmoid_56/Sigmoid"], "attr": {"T": {"type": "DT_FLOAT"}}}, {"name": "PartitionedCall/model_8/tf.nn.convolution_65/convolution", "op": "Conv2D", "input": ["PartitionedCall/model_8/tf.math.multiply_173/Mul", "1304"], "device": "/device:CPU:0", "attr": {"padding": {"s": "U0FNRQ=="}, "data_format": {"s": "TkhXQw=="}, "use_cudnn_on_gpu": {"b": true}, "strides": {"list": {"i": ["1", "1", "1", "1"]}}, "T": {"type": "DT_FLOAT"}, "explicit_paddings": {"list": {}}, "dilations": {"list": {"i": ["1", "1", "1", "1"]}}}}, {"name": "PartitionedCall/model_8/tf.nn.convolution_66/convolution", "op": "Conv2D", "input": ["PartitionedCall/model_8/tf.math.multiply_176/Mul", "1302"], "device": "/device:CPU:0", "attr": {"padding": {"s": "U0FNRQ=="}, "data_format": {"s": "TkhXQw=="}, "use_cudnn_on_gpu": {"b": true}, "strides": {"list": {"i": ["1", "1", "1", "1"]}}, "T": {"type": "DT_FLOAT"}, "explicit_paddings": {"list": {}}, "dilations": {"list": {"i": ["1", "1", "1", "1"]}}}}, {"name": "PartitionedCall/model_8/tf.math.add_77/Add", "op": "AddV2", "input": ["PartitionedCall/model_8/tf.nn.convolution_65/convolution", "1314"], "attr": {"T": {"type": "DT_FLOAT"}}}, {"name": "PartitionedCall/model_8/tf.math.add_78/Add", "op": "AddV2", "input": ["PartitionedCall/model_8/tf.nn.convolution_66/convolution", "1316"], "attr": {"T": {"type": "DT_FLOAT"}}}, {"name": "PartitionedCall/model_8/tf.concat_15/concat", "op": "ConcatV2", "input": ["PartitionedCall/model_8/tf.math.add_77/Add", "PartitionedCall/model_8/tf.math.add_78/Add", "PartitionedCall/model_8/tf.concat_15/concat/axis"], "attr": {"N": {"i": "2"}, "T": {"type": "DT_FLOAT"}, "Tidx": {"type": "DT_INT32"}}}, {"name": "PartitionedCall/model_8/tf.compat.v1.transpose_8/transpose", "op": "Transpose", "input": ["PartitionedCall/model_8/tf.concat_15/concat", "PartitionedCall/model_8/tf.compat.v1.transpose_8/transpose/perm"], "attr": {"Tperm": {"type": "DT_INT32"}, "T": {"type": "DT_FLOAT"}}}, {"name": "PartitionedCall/model_8/tf.reshape_2/Reshape", "op": "Reshape", "input": ["PartitionedCall/model_8/tf.compat.v1.transpose_8/transpose", "PartitionedCall/model_8/tf.reshape_2/Reshape/shape"], "attr": {"T": {"type": "DT_FLOAT"}, "Tshape": {"type": "DT_INT32"}}}, {"name": "PartitionedCall/model_8/tf.concat_16/concat", "op": "ConcatV2", "input": ["PartitionedCall/model_8/tf.reshape/Reshape", "PartitionedCall/model_8/tf.reshape_1/Reshape", "PartitionedCall/model_8/tf.reshape_2/Reshape", "PartitionedCall/model_8/tf.concat_16/concat/axis"], "attr": {"N": {"i": "3"}, "Tidx": {"type": "DT_INT32"}, "T": {"type": "DT_FLOAT"}}}, {"name": "PartitionedCall/model_8/tf.strided_slice_16/StridedSlice", "op": "StridedSlice", "input": ["PartitionedCall/model_8/tf.concat_16/concat", "1326", "1328", "PartitionedCall/model_8/tf.strided_slice_16/StridedSlice/strides"], "attr": {"shrink_axis_mask": {"i": "0"}, "Index": {"type": "DT_INT64"}, "new_axis_mask": {"i": "0"}, "begin_mask": {"i": "7"}, "T": {"type": "DT_FLOAT"}, "end_mask": {"i": "5"}, "ellipsis_mask": {"i": "0"}}}, {"name": "PartitionedCall/model_8/tf.strided_slice_17/StridedSlice", "op": "StridedSlice", "input": ["PartitionedCall/model_8/tf.concat_16/concat", "1346", "1348", "PartitionedCall/model_8/tf.strided_slice_17/StridedSlice/strides"], "attr": {"shrink_axis_mask": {"i": "0"}, "new_axis_mask": {"i": "0"}, "Index": {"type": "DT_INT64"}, "begin_mask": {"i": "5"}, "T": {"type": "DT_FLOAT"}, "end_mask": {"i": "5"}, "ellipsis_mask": {"i": "0"}}}, {"name": "PartitionedCall/model_8/tf.reshape_3/Reshape", "op": "Reshape", "input": ["PartitionedCall/model_8/tf.strided_slice_16/StridedSlice", "PartitionedCall/model_8/tf.reshape_3/Reshape/shape"], "attr": {"T": {"type": "DT_FLOAT"}, "Tshape": {"type": "DT_INT32"}}}, {"name": "PartitionedCall/model_8/tf.math.sigmoid_57/Sigmoid", "op": "Sigmoid", "input": ["PartitionedCall/model_8/tf.strided_slice_17/StridedSlice"], "attr": {"T": {"type": "DT_FLOAT"}}}, {"name": "PartitionedCall/model_8/tf.compat.v1.transpose_10/transpose", "op": "Transpose", "input": ["PartitionedCall/model_8/tf.reshape_3/Reshape", "PartitionedCall/model_8/tf.compat.v1.transpose_10/transpose/perm"], "attr": {"Tperm": {"type": "DT_INT32"}, "T": {"type": "DT_FLOAT"}}}, {"name": "PartitionedCall/model_8/tf.compat.v1.transpose_11/transpose", "op": "Transpose", "input": ["PartitionedCall/model_8/tf.compat.v1.transpose_10/transpose", "PartitionedCall/model_8/tf.compat.v1.transpose_11/transpose/perm"], "attr": {"Tperm": {"type": "DT_INT32"}, "T": {"type": "DT_FLOAT"}}}, {"name": "PartitionedCall/model_8/tf.nn.softmax_1/Softmax", "op": "Softmax", "input": ["PartitionedCall/model_8/tf.compat.v1.transpose_11/transpose"], "attr": {"T": {"type": "DT_FLOAT"}}}, {"name": "PartitionedCall/model_8/tf.nn.convolution_67/convolution", "op": "Conv2D", "input": ["PartitionedCall/model_8/tf.nn.softmax_1/Softmax", "1330"], "device": "/device:CPU:0", "attr": {"padding": {"s": "U0FNRQ=="}, "data_format": {"s": "TkhXQw=="}, "strides": {"list": {"i": ["1", "1", "1", "1"]}}, "use_cudnn_on_gpu": {"b": true}, "T": {"type": "DT_FLOAT"}, "explicit_paddings": {"list": {}}, "dilations": {"list": {"i": ["1", "1", "1", "1"]}}}}, {"name": "PartitionedCall/model_8/tf.compat.v1.transpose_14/transpose", "op": "Transpose", "input": ["PartitionedCall/model_8/tf.nn.convolution_67/convolution", "PartitionedCall/model_8/tf.compat.v1.transpose_14/transpose/perm"], "attr": {"Tperm": {"type": "DT_INT32"}, "T": {"type": "DT_FLOAT"}}}, {"name": "PartitionedCall/model_8/tf.reshape_4/Reshape", "op": "Reshape", "input": ["PartitionedCall/model_8/tf.compat.v1.transpose_14/transpose", "PartitionedCall/model_8/tf.reshape_4/Reshape/shape"], "attr": {"T": {"type": "DT_FLOAT"}, "Tshape": {"type": "DT_INT32"}}}, {"name": "PartitionedCall/model_8/tf.strided_slice_19/StridedSlice", "op": "StridedSlice", "input": ["PartitionedCall/model_8/tf.reshape_4/Reshape", "1332", "1334", "PartitionedCall/model_8/tf.strided_slice_19/ones_like"], "attr": {"shrink_axis_mask": {"i": "0"}, "Index": {"type": "DT_INT64"}, "new_axis_mask": {"i": "0"}, "begin_mask": {"i": "5"}, "end_mask": {"i": "5"}, "T": {"type": "DT_FLOAT"}, "ellipsis_mask": {"i": "0"}}}, {"name": "PartitionedCall/model_8/tf.strided_slice_18/StridedSlice", "op": "StridedSlice", "input": ["PartitionedCall/model_8/tf.reshape_4/Reshape", "1336", "1338", "PartitionedCall/model_8/tf.strided_slice_18/ones_like"], "attr": {"shrink_axis_mask": {"i": "0"}, "new_axis_mask": {"i": "0"}, "Index": {"type": "DT_INT64"}, "begin_mask": {"i": "7"}, "end_mask": {"i": "5"}, "T": {"type": "DT_FLOAT"}, "ellipsis_mask": {"i": "0"}}}, {"name": "PartitionedCall/model_8/tf.math.add_79/Add", "op": "AddV2", "input": ["1340", "PartitionedCall/model_8/tf.strided_slice_19/StridedSlice"], "attr": {"T": {"type": "DT_FLOAT"}}}, {"name": "PartitionedCall/model_8/tf.math.subtract/Sub", "op": "Sub", "input": ["1342", "PartitionedCall/model_8/tf.strided_slice_18/StridedSlice"], "attr": {"T": {"type": "DT_FLOAT"}}}, {"name": "PartitionedCall/model_8/tf.math.add_80/Add", "op": "AddV2", "input": ["PartitionedCall/model_8/tf.math.subtract/Sub", "PartitionedCall/model_8/tf.math.add_79/Add"], "attr": {"T": {"type": "DT_FLOAT"}}}, {"name": "PartitionedCall/model_8/tf.math.subtract_1/Sub", "op": "Sub", "input": ["PartitionedCall/model_8/tf.math.add_79/Add", "PartitionedCall/model_8/tf.math.subtract/Sub"], "attr": {"T": {"type": "DT_FLOAT"}}}, {"name": "PartitionedCall/model_8/tf.math.divide/truediv", "op": "Mul", "input": ["PartitionedCall/model_8/tf.math.add_80/Add", "ConstantFolding/PartitionedCall/model_8/tf.math.divide/truediv_recip"], "attr": {"T": {"type": "DT_FLOAT"}}}, {"name": "PartitionedCall/model_8/tf.concat_17/concat", "op": "ConcatV2", "input": ["PartitionedCall/model_8/tf.math.divide/truediv", "PartitionedCall/model_8/tf.math.subtract_1/Sub", "PartitionedCall/model_8/tf.concat_17/concat/axis"], "attr": {"N": {"i": "2"}, "T": {"type": "DT_FLOAT"}, "Tidx": {"type": "DT_INT32"}}}, {"name": "PartitionedCall/model_8/tf.math.multiply_185/Mul", "op": "Mul", "input": ["PartitionedCall/model_8/tf.concat_17/concat", "PartitionedCall/model_8/tf.math.multiply_185/Mul/y"], "attr": {"T": {"type": "DT_FLOAT"}}}, {"name": "PartitionedCall/model_8/output0/concat", "op": "ConcatV2", "input": ["PartitionedCall/model_8/tf.math.multiply_185/Mul", "PartitionedCall/model_8/tf.math.sigmoid_57/Sigmoid", "PartitionedCall/model_8/output0/concat/axis"], "attr": {"N": {"i": "2"}, "T": {"type": "DT_FLOAT"}, "Tidx": {"type": "DT_INT32"}}}, {"name": "Identity", "op": "Identity", "input": ["PartitionedCall/model_8/output0/concat"], "attr": {"T": {"type": "DT_FLOAT"}}}], "library": {}, "versions": {"producer": 1395}}, "weightsManifest": [{"paths": ["group1-shard1of4.bin", "group1-shard2of4.bin", "group1-shard3of4.bin", "group1-shard4of4.bin"], "weights": [{"name": "ConstantFolding/PartitionedCall/model_8/tf.math.divide/truediv_recip", "shape": [1, 1, 1], "dtype": "float32"}, {"name": "1340", "shape": [1, 2, 8400], "dtype": "float32"}, {"name": "1332", "shape": [3], "dtype": "int32"}, {"name": "1334", "shape": [3], "dtype": "int32"}, {"name": "PartitionedCall/model_8/tf.strided_slice_19/ones_like", "shape": [3], "dtype": "int32"}, {"name": "1342", "shape": [1, 2, 8400], "dtype": "float32"}, {"name": "1326", "shape": [3], "dtype": "int32"}, {"name": "1328", "shape": [3], "dtype": "int32"}, {"name": "PartitionedCall/model_8/tf.strided_slice_16/StridedSlice/strides", "shape": [3], "dtype": "int32"}, {"name": "PartitionedCall/model_8/tf.reshape_3/Reshape/shape", "shape": [4], "dtype": "int32"}, {"name": "PartitionedCall/model_8/tf.compat.v1.transpose_10/transpose/perm", "shape": [4], "dtype": "int32"}, {"name": "PartitionedCall/model_8/tf.compat.v1.transpose_11/transpose/perm", "shape": [4], "dtype": "int32"}, {"name": "1330", "shape": [1, 1, 16, 1], "dtype": "float32"}, {"name": "PartitionedCall/model_8/tf.compat.v1.transpose_14/transpose/perm", "shape": [4], "dtype": "int32"}, {"name": "PartitionedCall/model_8/tf.reshape_4/Reshape/shape", "shape": [3], "dtype": "int32"}, {"name": "1336", "shape": [3], "dtype": "int32"}, {"name": "1338", "shape": [3], "dtype": "int32"}, {"name": "PartitionedCall/model_8/tf.strided_slice_18/ones_like", "shape": [3], "dtype": "int32"}, {"name": "PartitionedCall/model_8/tf.concat_17/concat/axis", "shape": [], "dtype": "int32"}, {"name": "PartitionedCall/model_8/tf.math.multiply_185/Mul/y", "shape": [1, 1, 8400], "dtype": "float32"}, {"name": "1266", "shape": [3, 3, 64, 64], "dtype": "float32"}, {"name": "1276", "shape": [64], "dtype": "float32"}, {"name": "1290", "shape": [3, 3, 64, 64], "dtype": "float32"}, {"name": "1300", "shape": [64], "dtype": "float32"}, {"name": "1312", "shape": [1, 1, 64, 64], "dtype": "float32"}, {"name": "1322", "shape": [64], "dtype": "float32"}, {"name": "1252", "shape": [3, 3, 64, 80], "dtype": "float32"}, {"name": "1256", "shape": [80], "dtype": "float32"}, {"name": "1278", "shape": [3, 3, 80, 80], "dtype": "float32"}, {"name": "1280", "shape": [80], "dtype": "float32"}, {"name": "1310", "shape": [1, 1, 80, 80], "dtype": "float32"}, {"name": "1324", "shape": [80], "dtype": "float32"}, {"name": "PartitionedCall/model_8/tf.concat_10/concat/axis", "shape": [], "dtype": "int32"}, {"name": "PartitionedCall/model_8/tf.compat.v1.transpose_6/transpose/perm", "shape": [4], "dtype": "int32"}, {"name": "PartitionedCall/model_8/tf.reshape/Reshape/shape", "shape": [3], "dtype": "int32"}, {"name": "1264", "shape": [3, 3, 128, 64], "dtype": "float32"}, {"name": "1274", "shape": [64], "dtype": "float32"}, {"name": "1288", "shape": [3, 3, 64, 64], "dtype": "float32"}, {"name": "1298", "shape": [64], "dtype": "float32"}, {"name": "1308", "shape": [1, 1, 64, 64], "dtype": "float32"}, {"name": "1318", "shape": [64], "dtype": "float32"}, {"name": "1262", "shape": [3, 3, 128, 80], "dtype": "float32"}, {"name": "1272", "shape": [80], "dtype": "float32"}, {"name": "1286", "shape": [3, 3, 80, 80], "dtype": "float32"}, {"name": "1296", "shape": [80], "dtype": "float32"}, {"name": "1306", "shape": [1, 1, 80, 80], "dtype": "float32"}, {"name": "1320", "shape": [80], "dtype": "float32"}, {"name": "PartitionedCall/model_8/tf.concat_13/concat/axis", "shape": [], "dtype": "int32"}, {"name": "PartitionedCall/model_8/tf.compat.v1.transpose_7/transpose/perm", "shape": [4], "dtype": "int32"}, {"name": "PartitionedCall/model_8/tf.reshape_1/Reshape/shape", "shape": [3], "dtype": "int32"}, {"name": "1260", "shape": [3, 3, 256, 64], "dtype": "float32"}, {"name": "1270", "shape": [64], "dtype": "float32"}, {"name": "1284", "shape": [3, 3, 64, 64], "dtype": "float32"}, {"name": "1294", "shape": [64], "dtype": "float32"}, {"name": "1304", "shape": [1, 1, 64, 64], "dtype": "float32"}, {"name": "1314", "shape": [64], "dtype": "float32"}, {"name": "1246", "shape": [4], "dtype": "int32"}, {"name": "1248", "shape": [4], "dtype": "int32"}, {"name": "PartitionedCall/model_8/tf.strided_slice_14/ones_like", "shape": [4], "dtype": "int32"}, {"name": "1216", "shape": [4], "dtype": "int32"}, {"name": "1218", "shape": [4], "dtype": "int32"}, {"name": "PartitionedCall/model_8/tf.strided_slice_12/ones_like", "shape": [4], "dtype": "int32"}, {"name": "1186", "shape": [4], "dtype": "int32"}, {"name": "1188", "shape": [4], "dtype": "int32"}, {"name": "PartitionedCall/model_8/tf.strided_slice_10/ones_like", "shape": [4], "dtype": "int32"}, {"name": "PartitionedCall/model_8/lambda_1//model.13/Resize/size", "shape": [2], "dtype": "int32"}, {"name": "PartitionedCall/model_8/tf.concat_7/concat/axis", "shape": [], "dtype": "int32"}, {"name": "1170", "shape": [1, 1, 192, 64], "dtype": "float32"}, {"name": "1172", "shape": [64], "dtype": "float32"}, {"name": "1174", "shape": [4], "dtype": "int32"}, {"name": "1176", "shape": [4], "dtype": "int32"}, {"name": "PartitionedCall/model_8/tf.strided_slice_11/ones_like", "shape": [4], "dtype": "int32"}, {"name": "1178", "shape": [3, 3, 32, 32], "dtype": "float32"}, {"name": "1180", "shape": [32], "dtype": "float32"}, {"name": "1182", "shape": [3, 3, 32, 32], "dtype": "float32"}, {"name": "1184", "shape": [32], "dtype": "float32"}, {"name": "PartitionedCall/model_8/tf.concat_8/concat/axis", "shape": [], "dtype": "int32"}, {"name": "1190", "shape": [1, 1, 96, 64], "dtype": "float32"}, {"name": "1192", "shape": [64], "dtype": "float32"}, {"name": "1194", "shape": [4, 2], "dtype": "int32"}, {"name": "1196", "shape": [3, 3, 64, 64], "dtype": "float32"}, {"name": "1198", "shape": [64], "dtype": "float32"}, {"name": "1162", "shape": [4], "dtype": "int32"}, {"name": "1164", "shape": [4], "dtype": "int32"}, {"name": "PartitionedCall/model_8/tf.strided_slice_8/ones_like", "shape": [4], "dtype": "int32"}, {"name": "PartitionedCall/model_8/lambda//model.10/Resize/size", "shape": [2], "dtype": "int32"}, {"name": "PartitionedCall/model_8/tf.concat_5/concat/axis", "shape": [], "dtype": "int32"}, {"name": "1146", "shape": [1, 1, 384, 128], "dtype": "float32"}, {"name": "1148", "shape": [128], "dtype": "float32"}, {"name": "1150", "shape": [4], "dtype": "int32"}, {"name": "1152", "shape": [4], "dtype": "int32"}, {"name": "PartitionedCall/model_8/tf.strided_slice_9/ones_like", "shape": [4], "dtype": "int32"}, {"name": "1154", "shape": [3, 3, 64, 64], "dtype": "float32"}, {"name": "1156", "shape": [64], "dtype": "float32"}, {"name": "1158", "shape": [3, 3, 64, 64], "dtype": "float32"}, {"name": "1160", "shape": [64], "dtype": "float32"}, {"name": "PartitionedCall/model_8/tf.concat_6/concat/axis", "shape": [], "dtype": "int32"}, {"name": "1166", "shape": [1, 1, 192, 128], "dtype": "float32"}, {"name": "1168", "shape": [128], "dtype": "float32"}, {"name": "PartitionedCall/model_8/tf.concat_9/concat/axis", "shape": [], "dtype": "int32"}, {"name": "1200", "shape": [1, 1, 192, 128], "dtype": "float32"}, {"name": "1202", "shape": [128], "dtype": "float32"}, {"name": "1204", "shape": [4], "dtype": "int32"}, {"name": "1206", "shape": [4], "dtype": "int32"}, {"name": "PartitionedCall/model_8/tf.strided_slice_13/ones_like", "shape": [4], "dtype": "int32"}, {"name": "1208", "shape": [3, 3, 64, 64], "dtype": "float32"}, {"name": "1210", "shape": [64], "dtype": "float32"}, {"name": "1212", "shape": [3, 3, 64, 64], "dtype": "float32"}, {"name": "1214", "shape": [64], "dtype": "float32"}, {"name": "PartitionedCall/model_8/tf.concat_11/concat/axis", "shape": [], "dtype": "int32"}, {"name": "1220", "shape": [1, 1, 192, 128], "dtype": "float32"}, {"name": "1222", "shape": [128], "dtype": "float32"}, {"name": "1224", "shape": [4, 2], "dtype": "int32"}, {"name": "1226", "shape": [3, 3, 128, 128], "dtype": "float32"}, {"name": "1228", "shape": [128], "dtype": "float32"}, {"name": "1130", "shape": [4], "dtype": "int32"}, {"name": "1132", "shape": [4], "dtype": "int32"}, {"name": "PartitionedCall/model_8/tf.strided_slice_6/ones_like", "shape": [4], "dtype": "int32"}, {"name": "1100", "shape": [4], "dtype": "int32"}, {"name": "1102", "shape": [4], "dtype": "int32"}, {"name": "PartitionedCall/model_8/tf.strided_slice_4/ones_like", "shape": [4], "dtype": "int32"}, {"name": "1062", "shape": [4], "dtype": "int32"}, {"name": "1064", "shape": [4], "dtype": "int32"}, {"name": "PartitionedCall/model_8/tf.strided_slice_2/ones_like", "shape": [4], "dtype": "int32"}, {"name": "1024", "shape": [4], "dtype": "int32"}, {"name": "1026", "shape": [4], "dtype": "int32"}, {"name": "PartitionedCall/model_8/tf.strided_slice/ones_like", "shape": [4], "dtype": "int32"}, {"name": "996", "shape": [4, 2], "dtype": "int32"}, {"name": "998", "shape": [3, 3, 3, 16], "dtype": "float32"}, {"name": "1000", "shape": [16], "dtype": "float32"}, {"name": "1002", "shape": [4, 2], "dtype": "int32"}, {"name": "1004", "shape": [3, 3, 16, 32], "dtype": "float32"}, {"name": "1006", "shape": [32], "dtype": "float32"}, {"name": "1008", "shape": [1, 1, 32, 32], "dtype": "float32"}, {"name": "1010", "shape": [32], "dtype": "float32"}, {"name": "1012", "shape": [4], "dtype": "int32"}, {"name": "1014", "shape": [4], "dtype": "int32"}, {"name": "PartitionedCall/model_8/tf.strided_slice_1/ones_like", "shape": [4], "dtype": "int32"}, {"name": "1016", "shape": [3, 3, 16, 16], "dtype": "float32"}, {"name": "1018", "shape": [16], "dtype": "float32"}, {"name": "1020", "shape": [3, 3, 16, 16], "dtype": "float32"}, {"name": "1022", "shape": [16], "dtype": "float32"}, {"name": "PartitionedCall/model_8/tf.concat/concat/axis", "shape": [], "dtype": "int32"}, {"name": "1028", "shape": [1, 1, 48, 32], "dtype": "float32"}, {"name": "1030", "shape": [32], "dtype": "float32"}, {"name": "1032", "shape": [4, 2], "dtype": "int32"}, {"name": "1034", "shape": [3, 3, 32, 64], "dtype": "float32"}, {"name": "1036", "shape": [64], "dtype": "float32"}, {"name": "1038", "shape": [1, 1, 64, 64], "dtype": "float32"}, {"name": "1040", "shape": [64], "dtype": "float32"}, {"name": "1042", "shape": [4], "dtype": "int32"}, {"name": "1044", "shape": [4], "dtype": "int32"}, {"name": "PartitionedCall/model_8/tf.strided_slice_3/ones_like", "shape": [4], "dtype": "int32"}, {"name": "1046", "shape": [3, 3, 32, 32], "dtype": "float32"}, {"name": "1048", "shape": [32], "dtype": "float32"}, {"name": "1050", "shape": [3, 3, 32, 32], "dtype": "float32"}, {"name": "1052", "shape": [32], "dtype": "float32"}, {"name": "1054", "shape": [3, 3, 32, 32], "dtype": "float32"}, {"name": "1056", "shape": [32], "dtype": "float32"}, {"name": "1058", "shape": [3, 3, 32, 32], "dtype": "float32"}, {"name": "1060", "shape": [32], "dtype": "float32"}, {"name": "PartitionedCall/model_8/tf.concat_1/concat/axis", "shape": [], "dtype": "int32"}, {"name": "1066", "shape": [1, 1, 128, 64], "dtype": "float32"}, {"name": "1068", "shape": [64], "dtype": "float32"}, {"name": "1070", "shape": [4, 2], "dtype": "int32"}, {"name": "1072", "shape": [3, 3, 64, 128], "dtype": "float32"}, {"name": "1074", "shape": [128], "dtype": "float32"}, {"name": "1076", "shape": [1, 1, 128, 128], "dtype": "float32"}, {"name": "1078", "shape": [128], "dtype": "float32"}, {"name": "1080", "shape": [4], "dtype": "int32"}, {"name": "1082", "shape": [4], "dtype": "int32"}, {"name": "PartitionedCall/model_8/tf.strided_slice_5/ones_like", "shape": [4], "dtype": "int32"}, {"name": "1084", "shape": [3, 3, 64, 64], "dtype": "float32"}, {"name": "1086", "shape": [64], "dtype": "float32"}, {"name": "1088", "shape": [3, 3, 64, 64], "dtype": "float32"}, {"name": "1090", "shape": [64], "dtype": "float32"}, {"name": "1092", "shape": [3, 3, 64, 64], "dtype": "float32"}, {"name": "1094", "shape": [64], "dtype": "float32"}, {"name": "1096", "shape": [3, 3, 64, 64], "dtype": "float32"}, {"name": "1098", "shape": [64], "dtype": "float32"}, {"name": "PartitionedCall/model_8/tf.concat_2/concat/axis", "shape": [], "dtype": "int32"}, {"name": "1104", "shape": [1, 1, 256, 128], "dtype": "float32"}, {"name": "1106", "shape": [128], "dtype": "float32"}, {"name": "1108", "shape": [4, 2], "dtype": "int32"}, {"name": "1110", "shape": [3, 3, 128, 256], "dtype": "float32"}, {"name": "1112", "shape": [256], "dtype": "float32"}, {"name": "1114", "shape": [1, 1, 256, 256], "dtype": "float32"}, {"name": "1116", "shape": [256], "dtype": "float32"}, {"name": "1118", "shape": [4], "dtype": "int32"}, {"name": "1120", "shape": [4], "dtype": "int32"}, {"name": "PartitionedCall/model_8/tf.strided_slice_7/ones_like", "shape": [4], "dtype": "int32"}, {"name": "1122", "shape": [3, 3, 128, 128], "dtype": "float32"}, {"name": "1124", "shape": [128], "dtype": "float32"}, {"name": "1126", "shape": [3, 3, 128, 128], "dtype": "float32"}, {"name": "1128", "shape": [128], "dtype": "float32"}, {"name": "PartitionedCall/model_8/tf.concat_3/concat/axis", "shape": [], "dtype": "int32"}, {"name": "1134", "shape": [1, 1, 384, 256], "dtype": "float32"}, {"name": "1136", "shape": [256], "dtype": "float32"}, {"name": "1138", "shape": [1, 1, 256, 128], "dtype": "float32"}, {"name": "1140", "shape": [128], "dtype": "float32"}, {"name": "PartitionedCall/model_8/tf.concat_4/concat/axis", "shape": [], "dtype": "int32"}, {"name": "1142", "shape": [1, 1, 512, 256], "dtype": "float32"}, {"name": "1144", "shape": [256], "dtype": "float32"}, {"name": "PartitionedCall/model_8/tf.concat_12/concat/axis", "shape": [], "dtype": "int32"}, {"name": "1230", "shape": [1, 1, 384, 256], "dtype": "float32"}, {"name": "1232", "shape": [256], "dtype": "float32"}, {"name": "1234", "shape": [4], "dtype": "int32"}, {"name": "1236", "shape": [4], "dtype": "int32"}, {"name": "PartitionedCall/model_8/tf.strided_slice_15/ones_like", "shape": [4], "dtype": "int32"}, {"name": "1238", "shape": [3, 3, 128, 128], "dtype": "float32"}, {"name": "1240", "shape": [128], "dtype": "float32"}, {"name": "1242", "shape": [3, 3, 128, 128], "dtype": "float32"}, {"name": "1244", "shape": [128], "dtype": "float32"}, {"name": "PartitionedCall/model_8/tf.concat_14/concat/axis", "shape": [], "dtype": "int32"}, {"name": "1250", "shape": [1, 1, 384, 256], "dtype": "float32"}, {"name": "1254", "shape": [256], "dtype": "float32"}, {"name": "1258", "shape": [3, 3, 256, 80], "dtype": "float32"}, {"name": "1268", "shape": [80], "dtype": "float32"}, {"name": "1282", "shape": [3, 3, 80, 80], "dtype": "float32"}, {"name": "1292", "shape": [80], "dtype": "float32"}, {"name": "1302", "shape": [1, 1, 80, 80], "dtype": "float32"}, {"name": "1316", "shape": [80], "dtype": "float32"}, {"name": "PartitionedCall/model_8/tf.concat_15/concat/axis", "shape": [], "dtype": "int32"}, {"name": "PartitionedCall/model_8/tf.compat.v1.transpose_8/transpose/perm", "shape": [4], "dtype": "int32"}, {"name": "PartitionedCall/model_8/tf.reshape_2/Reshape/shape", "shape": [3], "dtype": "int32"}, {"name": "PartitionedCall/model_8/tf.concat_16/concat/axis", "shape": [], "dtype": "int32"}, {"name": "1346", "shape": [3], "dtype": "int32"}, {"name": "1348", "shape": [3], "dtype": "int32"}, {"name": "PartitionedCall/model_8/tf.strided_slice_17/StridedSlice/strides", "shape": [3], "dtype": "int32"}, {"name": "PartitionedCall/model_8/output0/concat/axis", "shape": [], "dtype": "int32"}]}]}